stock_lstm_model.pth (torch, 208822 bytes, 9 tensors)

lstm.weight_ih_l0 f4 [256, 4]
00000000: c9e7 8bbf 9144 80bf 9bfc 68bf efa9 85bf
00000010: eece 673f 2341 6f3f b16d 893f bdf3 603f
00000020: 705b 883f fcba 753f e25f 753f 2063 723f
00000030: e8f6 88bf 7827 8bbf 6f0b 8fbf 3ec1 82bf
00000040: 0372 8abf c793 80bf 44d0 81bf 58d0 6ebf
00000050: c4ec 86bf 8988 45bf a1c7 6ebf bc7f 6dbf
00000060: a574 79bf 68d4 64bf b0bd 8fbf eacf 79bf
00000070: bb32 8e3f 2de3 793f 3316 753f 7dcd 8b3f
00000080: ff72 68bf 4861 83bf 6309 89bf a71f 6ebf
00000090: 3398 79bf 7422 84bf 8e7b 70bf bca6 8dbf
000000a0: 7b5f 893f 68ac 573f c41c 853f ccc0 8b3f
000000b0: 5238 8bbf 3131 74bf 2a51 89bf 6c75 67bf
000000c0: ae3b 74bf 44d5 7bbf e17b 8ebf 5d22 7fbf
000000d0: d2e2 69bf 56cc 62bf 4bba 70bf 31c5 75bf
000000e0: 2f2b 61bf 24c6 7ebf e0a0 74bf 378a 82bf
000000f0: 711a 8f3f e204 8b3f a372 7e3f 3c2f 6b3f
00000100: 9a98 82bf 7a62 79bf 2014 7bbf f48f 8bbf
00000110: cdeb 773f 755e 7e3f f8f0 703f 6c60 653f
00000120: 68df 7ebf 6455 80bf a3f3 8abf 7d9f 81bf
00000130: d630 793f 94b7 6f3f 9284 683f f7bb 723f
00000140: 3c99 6cbf aae6 2ebf aecd 88bf f0cb 3f3f
00000150: ad4c 733f 8ac9 8d3f bca0 8d3f fc27 6c3f
00000160: 612a 64bf e0e6 7cbf 97ef 74bf da91 8cbf
00000170: 9aab 883f 058e 703f baef 753f b720 893f
00000180: 5f49 8bbf 2f10 8bbf 209b 71bf 1831 72bf
00000190: f4ad 733f 7aaa 573f 9c64 7d3f f8b3 613f
000001a0: 79a4 7e3f 4ac0 823f bafe 723f ba4d 8f3f
000001b0: b2d7 7d3f 6a4a 803f 94a4 8b3f afc7 8a3f
000001c0: 921b 703f 1689 843f e539 823f 16d9 823f
000001d0: 5971 68bf 2f85 80bf 5aa2 7cbf 12ec 75bf
000001e0: 21e4 6d3f 71d9 603f 2ed3 8b3f 7813 713f
000001f0: 9678 723f 8407 5b3f 5126 793f 62c3 883f
00000200: f47c 4dbf bda9 813d f4cb 8abf afe2 7b3f
00000210: a456 723f 1cfb 563f f1c1 893f 23ea 6e3f
00000220: b214 87bf b46e 70bf fe44 87bf 8b97 7abf
00000230: 6ff3 6abf bf82 5cbf 846a 6dbf 42ff 6ebf
00000240: de43 7b3f 179f 0e3f 9889 7c3f f96f 77bf
00000250: 03eb 88bf 91c6 50bf ef47 8ebf ee3b 84bf
00000260: b5fe 83bf a461 89bf 36be 88bf 6931 81bf
00000270: d0d1 8f3f ac16 603f d997 8d3f a46a 763f
00000280: a2a0 85bf e2d2 62bf 3fca 62bf 6497 85bf
00000290: 9bd3 823f dcc5 693f 32a0 833f 4709 7b3f
000002a0: 49ae 84bf ecfa 51bf 283b 84bf d066 6ebf
000002b0: 9fbf 6ebf b332 82bf b314 7cbf 4cfc 7bbf
000002c0: 784f 82bf 2227 70bf ef36 6dbf b62c 62bf
000002d0: 085f 78bf 306c 8bbf 0462 8cbf 4de9 8cbf
000002e0: 9476 803f 7f54 673f d03e 763f c438 8c3f
000002f0: a066 8b3f da84 753f d533 643f 71b0 8f3f
00000300: 29f9 81bf 248e 7bbf 3377 83bf 0217 82bf
00000310: db9f 7f3f 7ebf 6f3f 4a4d 6d3f cdf1 6f3f
00000320: 59da 843f 6645 673f 26b0 693f d879 733f
00000330: d50c 8abf e81e 86bf ca4a 7dbf 46ac 6dbf
00000340: c62f 833f 5979 613f bbe2 6a3f db7b 773f
00000350: 8043 81bf 8f78 74bf 298c 87bf 4b61 73bf
00000360: d1b5 72bf a8d1 80bf d977 69bf 1001 8fbf
00000370: 374a 68bf da9d 77bf 0467 62bf 60a5 6dbf
00000380: 4426 6c3f 1cc0 583f 4253 813f 1b47 683f
00000390: d27e 743f 3e55 7d3f cd40 7f3f b397 863f
000003a0: 62cd 6d3f 2525 783f cf08 893f b483 813f
000003b0: bade 73bf f459 6abf 2b57 61bf 5f36 63bf
000003c0: fe60 62bf c18b 58bf 83b1 80bf 8e6a 6cbf
000003d0: a927 6f3f 130c 7a3f c30f 6d3f 2815 6e3f
000003e0: 45c1 7b3f 5953 883f 8663 893f 3163 753f
000003f0: 4545 69bf 77f5 56bf f448 75bf e686 85bf
-1.093011 -1.0020925 -0.91010445 -1.0442485 0.90550125 0.93458766 1.07366 0.87871915
1.0652905 0.9598844 0.9584943 0.946825 -1.070035 -1.087142 -1.1175364 -1.0215223
-1.0816044 -1.0045098 -1.0141683 -0.9328666 -1.0541005 -0.7716146 -0.9327336 -0.9277303
-0.9744361 -0.89386606 -1.1229763 -0.97582877 1.1109232 0.9761227 0.95737 1.0922085
-0.9080047 -1.0264063 -1.070599 -0.9301705 -0.9749786 -1.0323014 -0.9393853 -1.1066508
1.0732263 0.84247446 1.0399404 1.0918212 -1.0876563 -0.9538756 -1.0727894 -0.90413547
-0.95403564 -0.9837229 -1.1131555 -0.9966181 -0.91361725 -0.8859304 -0.9403426 -0.96004015
-0.8795652 -0.9952109 -0.95557976 -1.019843 1.1179944 1.0860865 0.9939367 0.9186895
-1.020282 -0.9741589 -0.98077583 -1.0903306 0.9684418 0.9936288 0.9411769 0.89600253
-0.9955964 -1.0026059 -1.0855602 -1.0126797 0.9734014 0.93639493 0.90827286 0.9481806
-0.9242132 -0.68320715 -1.0687768 0.7492056 0.9503887 1.107713 1.1064677 0.9224851
-0.89127165 -0.9878979 -0.95678085 -1.098201 1.0677369 0.93966705 0.9606892 1.0713109
-1.0881766 -1.0864314 -0.94377327 -0.9460616 0.95187306 0.842445 0.9898164 0.88165236
0.99469715 1.0214932 0.9491993 1.1195595 0.9915725 1.0022709 1.09096 1.0842189
0.9379207 1.0354335 1.0173918 1.0222499 -0.90797955 -1.0040644 -0.9868523 -0.9606334
0.9292622 0.8783179 1.0923822 0.9417033 0.9471525 0.8555834 0.9732409 1.0684626
-0.8026879 0.06331203 -1.0843492 0.98392767 0.94663453 0.8397691 1.0762311 0.93326014
-1.0553191 -0.9391892 -1.056793 -0.97887486 -0.917777 -0.86137 -0.92740655 -0.9335824
0.9815043 0.557115 0.9864745 -0.9665523 -1.069672 -0.8155299 -1.1115702 -1.0330789
-1.0312105 -1.0732923 -1.0683048 -1.0093204 1.1235905 0.87534595 1.1061965 0.9625647
-1.0439646 -0.8860303 -0.88589853 -1.0436826 1.0220827 0.91317534 1.0283263 0.9806103
-1.0365688 -0.820235 -1.0330553 -0.9312563 -0.9326114 -1.0171722 -0.98469085 -0.9843185
-1.0180502 -0.9380971 -0.92661947 -0.88349473 -0.97020006 -1.0892391 -1.0967412 -1.1008698
1.0036187 0.90363306 0.96189594 1.0954823 1.0890694 0.9590584 0.8914159 1.1225721
-1.0154163 -0.98263764 -1.0270752 -1.0163271 0.99853295 0.9365157 0.9269606 0.93728334
1.0379134 0.9034027 0.91284406 0.95107794 -1.0785166 -1.0478182 -0.98942244 -0.92840993
1.0248954 0.88075787 0.91752213 0.96673363 -1.0098724 -0.9549646 -1.0589648 -0.9507033
-0.9480868 -1.0063982 -0.911985 -1.1172199 -0.9073824 -0.9672524 -0.8843844 -0.9283047
0.9224589 0.84668136 1.0103533 0.907335 0.9550601 0.98958194 0.99708253 1.0515045
0.92891514 0.9693168 1.0705813 1.0118318 -0.9526173 -0.9154351 -0.8802363 -0.8875484
-0.8842925 -0.8458825 -1.0054172 -0.9235009 0.9341989 0.97674674 0.92602175 0.9300103
0.9834178 1.0650436 1.0733497 0.9585448 -0.9112132 -0.839683 -0.9581444 -1.0431793

lstm.weight_hh_l0 f4 [256, 64]
00000000: f1ea 66bf 3b10 7e3f 927c 853f a38a 8e3f
00000010: c7f4 773f e071 82bf f318 6bbf e9e5 81bf
00000020: c17d 643f d44a 733f 0e78 84bf 430a 8e3f
00000030: f3cb 823f 2e36 693f 9006 723f eb6e 83bf
00000040: f036 8dbf a3ca 743f cef8 763f a679 843f
00000050: a9cf 673f 7696 8a3f 1770 8cbf 8508 8abf
00000060: 0a7e 7b3f dcae 893f a2cd 863f 6a0d 61bf
00000070: 06f2 82bf 887a 833f 1c3e 713f 8954 8bbf
00000080: 5e3d 70bf 214b 87bf a448 683f 6916 633f
00000090: d689 8cbf 78d3 89bf 00ab 5fbf 2146 793f
000000a0: 3a6f 753f e6bd 7abf ce1f 8b3f 9634 87bf
000000b0: 3bef 7ebf e45a 8abf 15af 6ebf 1229 8cbf
000000c0: 8b3c 6d3f dc4d 77bf 2b49 623f a894 71bf
000000d0: 4d77 7fbf 4efa 69bf 9f1d 7b3f 1ef9 823f
000000e0: 3a1a 7a3f 982c 623f 5c21 883f 0d39 89bf
000000f0: 6e53 8ebf a493 60bf 2ed6 79bf eb24 8d3f
00000100: ea68 6d3f 321c 87bf c410 7fbf e65b 78bf
00000110: 0d48 7ebf e9e2 7f3f 5e78 853f bab2 803f
00000120: 245b 66bf 710b 7bbf 5f93 7f3f 1a62 73bf
00000130: f134 6bbf fc7b 7ebf 4afe 64bf 5e13 853f
00000140: 08c1 743f f887 80bf 624d 69bf a382 78bf
00000150: 4893 82bf 0261 8dbf 24c7 783f c90a 823f
00000160: 8c5e 88bf 19d1 63bf e6b0 66bf 9b4f 783f
00000170: a67e 773f 1a56 62bf ba18 61bf 31e2 833f
00000180: e942 583f 9fb9 853f 8bcc 6abf 10be 67bf
00000190: 0737 743f 9a7c 7c3f 9068 693f 9799 8fbf
000001a0: d0eb 87bf 8f35 763f 5270 61bf 2436 8b3f
000001b0: 4022 6d3f 9339 7c3f 5093 8a3f 589f 843f
000001c0: 1315 8cbf 06eb 883f fd6c 85bf 9d90 8f3f
000001d0: 8a3a 8e3f 2fe5 613f 5f81 7bbf 886c 6bbf
000001e0: 7830 79bf 335e 82bf 012f 84bf c06b 7d3f
000001f0: 460d 843f 4ed9 8a3f e8fe 893f de45 8fbf
00000200: 2ca1 663f 94da 82bf d70e 7dbf dcae 74bf
00000210: c34f 7cbf 36ef 843f 9c76 783f 7759 623f
00000220: 1e62 74bf 30ee 76bf e6b0 8e3f 9170 83bf
00000230: aead 85bf 1a6a 87bf 38ec 8fbf de46 7e3f
00000240: b629 853f afd7 68bf 71ba 72bf 9e54 86bf
00000250: 32ef 79bf 0bfa 77bf 8fd0 6b3f 4a4e 853f
00000260: 754f 7ebf 8516 62bf 1a02 8fbf d89b 633f
00000270: dc4c 613f b406 71bf b1c8 69bf b43e 783f
00000280: fee6 09bf a009 8b3f ff19 69bf 11a7 7fbf
00000290: 8cdc 7e3f 9a45 853f 307b 763f af77 6fbf
000002a0: 8ec0 8abf cc00 8d3f e210 6ebf 33cb 7d3f
000002b0: 9c26 753f 803a 803f 6e68 693f fed4 8a3f
000002c0: f1a1 6ebf c4f1 8e3f 5e8a 8ebf e8a7 613f
000002d0: 5154 683f 386d 833f d50d 8ebf cb10 7fbf
000002e0: 8eba 76bf 8600 76bf c772 64bf 93f8 723f
000002f0: 427a 863f c887 713f 784a 6b3f 9c16 6abf
00000300: 8e94 88bf bfac 823f ee32 733f 11ec 823f
00000310: 602e 6b3f 6123 7abf 4cfb 74bf 2122 83bf
00000320: f969 8c3f 5c3f 6e3f 1289 76bf 8afe 7f3f
00000330: 208e 743f 4762 823f b2a7 663f bf67 69bf
00000340: 0c97 8dbf 459d 6b3f 413e 8f3f caf0 823f
00000350: a6e2 643f 0fe7 673f d731 7cbf fbea 6abf
00000360: ec03 7f3f 0ecf 8d3f 214e 693f 6f2d 8abf
00000370: 40d6 68bf 8345 6c3f 315e 843f 4bb4 8cbf
00000380: 3f09 88bf 3ea7 6dbf 8591 803f 8889 7c3f
00000390: f07d 85bf da34 8abf e65a 81bf ca12 813f
000003a0: 9845 803f 012f 89bf ce9e 8d3f 0576 8ebf
000003b0: 6575 80bf 6a88 61bf 902a 84bf a87d 8fbf
000003c0: 1c10 8e3f 46ed 81bf 2084 873f 4403 87bf
000003d0: 1049 66bf 508e 88bf 1772 773f 7a42 783f
000003e0: e96c 863f ce83 8e3f ac0e 6b3f 368e 73bf
000003f0: 28e3 7cbf b6bc 8cbf 87e7 81bf 90d8 773f
-0.9020224 0.99243516 1.0428641 1.1136059 0.96857876 -1.0191002 -0.91834944 -1.0148288
0.89254385 0.95036054 -1.0349138 1.1096882 1.021849 0.91098297 0.94541264 -1.0268224
-1.103239 0.956217 0.96473396 1.0349624 0.9055124 1.0827167 -1.0971707 -1.078385
0.98239195 1.0756488 1.0531504 -0.87911093 -1.023011 1.0271769 0.94235396 -1.0885173
-0.9384364 -1.0569803 0.9073584 0.8870607 -1.0979564 -1.076766 -0.873703 0.97372633
0.95872843 -0.9794601 1.0869081 -1.0562923 -0.99583787 -1.0808988 -0.93235904 -1.0950034
0.92670506 -0.9660318 0.88392895 -0.94367456 -0.99791414 -0.9139756 0.98092073 1.0232275
0.9769627 0.88349295 1.063518 -1.0720536 -1.1119211 -0.8772528 -0.9759244 1.1026891
0.9273821 -1.055548 -0.9963496 -0.97015226 -0.9932869 0.9995561 1.0427358 1.0054543
-0.8998282 -0.98064333 0.99834245 -0.95071566 -0.9187766 -0.99407935 -0.89450514 1.0396535
0.9560704 -1.0041494 -0.911337 -0.97074336 -1.0201197 -1.104523 0.97178864 1.0159541
-1.0653853 -0.8899093 -0.90113676 0.9699647 0.96677625 -0.8841263 -0.87928355 1.0303403
0.84477097 1.0447272 -0.9171836 -0.9052439 0.95396465 0.98627627 0.91175175 -1.1218747
-1.0618839 0.96175474 -0.8806201 1.0875897 0.92630386 0.9852535 1.0826206 1.0361128
-1.0943931 1.0696723 -1.0423886 1.1216007 1.1111615 0.8824033 -0.9824428 -0.9196248
-0.9733958 -1.0184997 -1.0326844 0.9899254 1.0316551 1.0847566 1.0780916 -1.1193197
0.9008968 -1.0222955 -0.9885077 -0.95579314 -0.98559207 1.0385501 0.97055984 0.8841776
-0.95462215 -0.96457195 1.1147735 -1.0268728 -1.0443628 -1.0579255 -1.1243963 0.99326885
1.0403354 -0.9095411 -0.94815737 -1.0494573 -0.9763061 -0.9686591 0.9211511 1.0414517
-0.9933999 -0.8831561 -1.1172516 0.88909674 0.88007903 -0.94150853 -0.91321856 0.9697068
-0.5386809 1.0862312 -0.9105529 -0.998643 0.9955528 1.0411866 0.9628172 -0.93542
-1.0840013 1.1015868 -0.9299451 0.9913818 0.9576204 1.0017853 0.9117497 1.084625
-0.9321585 1.1167531 -1.1135976 0.8814683 0.90753657 1.0267706 -1.1097971 -0.99635
-0.9637841 -0.9609455 -0.89237636 0.94910544 1.050606 0.9434781 0.91910505 -0.9144075
-1.0670335 1.0208968 0.9499959 1.0228292 0.9186764 -0.97710234 -0.9569595 -1.024479
1.096984 0.9306543 -0.963029 0.9999777 0.95529366 1.0186242 0.9009963 -0.9117393
-1.1061721 0.9203685 1.1190873 1.0229733 0.8940834 0.9058694 -0.9851355 -0.917648
0.9961536 1.1078813 0.9113484 -1.0795115 -0.9095192 0.92293566 1.0341245 -1.0992521
-1.0627822 -0.92833316 1.0044409 0.98647356 -1.0429058 -1.0797379 -1.0105865 1.0083859
1.0021238 -1.071747 1.1064088 -1.1129767 -1.0035826 -0.88098776 -1.0325489 -1.1210222
1.1098666 -1.0150535 1.0587196 -1.0547872 -0.89955235 -1.066843 0.9665846 0.96976435
1.0501987 1.1133974 0.9181926 -0.9513887 -0.9878411 -1.099509 -1.0148782 0.96814823

lstm.bias_ih_l0 f4 [256]
00000000: 9087 8fbf 8e1b 8d3f 985e 833f dcfe 7ebf
00000010: fe6f 83bf 4703 85bf 1c51 72bf 1091 753f
00000020: 71b7 7abf d032 7ebf d6e7 613f 3c7b 70bf
00000030: 5ef8 8abf 7177 6bbf 4864 81bf 770c 8a3f
00000040: 2826 69bf e7f6 823f b537 8ebf d52d 813f
00000050: bdae 8dbf 77bc 813f e36c 81bf 214e 8a3f
00000060: 8a0e 78bf dbc8 813f eddf 863f ae36 763f
00000070: 3fcc 6a3f c117 88bf 4bfd 883f f763 873f
00000080: ac14 8cbf 54bc 843f a305 71bf 7200 8abf
00000090: 2396 613f 409f 8ebf d8a1 8fbf a95c 7f3f
000000a0: baaf 63bf cfdf 853f c34e 62bf 6299 61bf
000000b0: 3d15 7cbf 6263 81bf 3725 643f 10b5 8f3f
000000c0: 3db6 80bf d768 643f 1614 8b3f e85b 85bf
000000d0: 4ef5 843f ee37 60bf 8960 88bf b91e 85bf
000000e0: 5db3 7c3f f988 7b3f 5e43 7b3f 5f3b 62bf
000000f0: 69d2 85bf 7f69 8e3f 85de 7c3f 29e1 83bf
00000100: d0bb 6fbf 7a84 633f d8ca 663f ed02 74bf
00000110: a847 79bf e778 65bf f775 8fbf a603 843f
00000120: 4111 8abf ef9f 60bf c665 813f 5e04 7ebf
00000130: 63d2 8dbf 5fca 83bf 743e 8dbf 86bd 893f
00000140: 91ca 78bf 4aed 8e3f 6d3e 6bbf 9f43 873f
00000150: 18a6 86bf 559e 8b3f 5614 8cbf 2f7c 803f
00000160: b5c6 89bf 3e43 603f 6661 633f 2685 8f3f
00000170: 749e 8b3f da65 8bbf 9cb9 6a3f c0ba 823f
00000180: 2ee5 6fbf 88e0 853f da81 78bf f487 8fbf
00000190: 70b1 723f a4be 75bf 0644 68bf ea15 7e3f
000001a0: 8415 6abf 8189 7a3f 75b4 82bf 43af 79bf
000001b0: 05f2 81bf d4db 77bf cb33 8a3f a3f7 7c3f
000001c0: 5230 89bf 3fc0 873f cb2e 603f 8165 80bf
000001d0: 1b6d 793f 3ed8 68bf eec8 67bf 1c93 7abf
000001e0: fd17 733f 81b1 863f f6b5 8c3f 3fca 8abf
000001f0: 75f1 67bf 4788 6a3f 8ed9 8b3f bb92 8dbf
00000200: 66df 74bf ce9c 8cbf 0537 86bf bc79 723f
00000210: 536d 833f 4cba 72bf 5cd5 75bf a503 873f
00000220: 5820 793f 14f8 693f 0b2e 813f 44b7 6b3f
00000230: 327a 733f 6490 6a3f 8a7a 643f 6d00 693f
00000240: 4a5d 68bf b8b4 8abf be13 613f d90e 8fbf
00000250: 1602 613f 5231 84bf a7b8 7fbf d03f 893f
00000260: e0a8 763f 96bb 82bf 19e4 88bf d6bf 7e3f
00000270: 93e5 843f ad85 8c3f f6b3 87bf 4ac4 633f
00000280: 5e99 76bf ed97 8e3f 04e8 6c3f 5638 773f
00000290: 4ac7 8a3f 53ae 80bf 44e4 7bbf be5a 84bf
000002a0: b97c 733f 9aea 8b3f fd41 693f 22aa 76bf
000002b0: d871 86bf 2627 7cbf 02a8 843f d17b 883f
000002c0: 4d82 633f d4aa 893f cc32 8fbf ca22 63bf
000002d0: 03f4 893f ced0 7dbf ade7 883f ed03 7d3f
000002e0: 29ee 8abf 513a 85bf e727 88bf 1539 7cbf
000002f0: b79b 61bf a964 803f c345 8e3f d54a 603f
00000300: ee2c 82bf bab1 733f 8445 773f 90ad 6cbf
00000310: 86ed 71bf 4ab6 8dbf e81f 78bf 4e92 7a3f
00000320: 4f38 8dbf f89f 8cbf 820b 843f ca16 83bf
00000330: c32b 7dbf e3c7 80bf bffa 71bf df93 883f
00000340: 05eb 65bf abc8 8a3f 8eb5 8cbf 7068 8f3f
00000350: 1699 67bf e846 873f b510 74bf 9610 7c3f
00000360: 6e0f 82bf 9bba 8e3f 54ee 8a3f f365 8a3f
00000370: 133a 8b3f 4e93 65bf b50c 853f e7be 633f
00000380: d9cd 6bbf 859a 803f d4c8 7cbf b26d 87bf
00000390: 3a24 7c3f 5f3d 81bf 9edb 8cbf f21c 7e3f
000003a0: c8fc 84bf f708 6e3f f6ca 64bf e23d 87bf
000003b0: 53a4 81bf e610 6ebf 749c 763f 7117 773f
000003c0: 1c70 86bf 2dcc 713f 1c70 833f a417 8cbf
000003d0: aaf7 883f 8dc6 8cbf d3be 79bf 3e1f 80bf
000003e0: b0b4 843f ab67 8e3f 4cc4 693f 8c06 80bf
000003f0: 9022 69bf c9af 8f3f b808 883f e997 81bf
-1.1213245 1.1024034 1.0263243 -0.99607635 -1.0268552 -1.0391625 -0.94655013 0.9592447
-0.9793616 -0.99296284 0.8824438 -0.9393804 -1.0857046 -0.9197913 -1.0108728 1.0785054
-0.91073847 1.0231599 -1.111075 1.0092112 -1.1068951 1.013564 -1.0111355 1.0805093
-0.96897185 1.0139421 1.0537087 0.96177185 0.91717905 -1.0632249 1.0702299 1.0577382
-1.0943809 1.0369973 -0.94149226 -1.0781386 0.88119715 -1.1142349 -1.1221266 0.99750763
-0.8894001 1.0458926 -0.8840143 -0.8812467 -0.9846991 -1.0108454 0.89119285 1.1227131
-1.0055615 0.8922247 1.0865505 -1.0418673 1.0387361 -0.8758534 -1.065446 -1.0400001
0.98711187 0.9825588 0.9814967 -0.88371843 -1.0454837 1.1125945 0.9877704 -1.0303088
-0.93645954 0.8887402 0.90153265 -0.95316964 -0.97374964 -0.8963761 -1.1207875 1.0313613
-1.0786515 -0.8774404 1.0109184 -0.99225414 -1.107983 -1.0296134 -1.1034684 1.0760963
-0.9718409 1.1166165 -0.9189213 1.0567511 -1.0519438 1.0907694 -1.0943706 1.0037898
-1.0763766 0.87602603 0.88820493 1.1212509 1.0907731 -1.0890458 0.9168947 1.0213242
-0.93709075 1.0459146 -0.9707314 -1.1213365 0.94802 -0.9599402 -0.90728796 0.9925219
-0.9143908 0.97866064 -1.0211321 -0.97533053 -1.0151983 -0.96819806 1.0797056 0.98815364
-1.0717871 1.0605544 0.875714 -1.0030977 0.97432107 -0.9095496 -0.9054097 -0.9788072
0.9495848 1.052292 1.099303 -1.0842971 -0.9060281 0.9161419 1.0925767 -1.1060404
-0.9565338 -1.0985353 -1.0485541 0.94717 1.0267738 -0.94815516 -0.96028686 1.0547987
0.9731498 0.9139416 1.0092176 0.92076516 0.9510833 0.9162657 0.8924948 0.91016275
-0.9076735 -1.0836401 0.8792075 -1.1176406 0.8789381 -1.0327551 -0.9989113 1.0722599
0.9635143 -1.0213497 -1.069461 0.9951147 1.038256 1.0978295 -1.0601795 0.8897139
-0.9632777 1.1140114 0.9254153 0.96570337 1.0842068 -1.00532 -0.9839518 -1.0340192
0.95112187 1.093097 0.91116315 -0.9635335 -1.0503492 -0.98497236 1.0363772 1.0662786
0.888707 1.0755258 -1.1187377 -0.8872496 1.0777591 -0.99146736 1.0695702 0.98834115
-1.0853931 -1.0408422 -1.0637177 -0.985246 -0.88128227 1.0030719 1.111504 0.87614185
-1.0169961 0.95193064 0.9659045 -0.92452335 -0.94503057 -1.1071255 -0.96923685 0.97879493
-1.1032809 -1.0986319 1.0316012 -1.024133 -0.988949 -1.0061 -0.94523233 1.0670127
-0.89811736 1.0842489 -1.0992906 1.1203747 -0.90467966 1.0568514 -0.9533799 0.9846281
-1.0160959 1.1150697 1.0853982 1.0812362 1.0877098 -0.89677894 1.0394503 0.8896317
-0.92110974 1.0047156 -0.9874394 -1.0580351 0.9849278 -1.0096854 -1.1004522 0.9926292
-1.0389643 0.9298243 -0.89372194 -1.056576 -1.0128273 -0.92994535 0.9633248 0.96520144
-1.0502963 0.9445217 1.0268588 -1.0944715 1.0700581 -1.0998093 -0.975568 -1.0009534
1.0367641 1.1125387 0.9131515 -1.0001998 -0.91068363 1.122552 1.0627661 -1.0124484

lstm.bias_hh_l0 f4 [256]
00000000: 79d0 8bbf e2fd 6b3f 7409 8b3f ac9e 72bf
00000010: fa50 82bf 1fa2 83bf 6312 6cbf 8ce9 833f
00000020: f490 71bf 0800 76bf 3f05 863f 22f8 63bf
00000030: 8227 85bf 6141 7cbf 7623 75bf 9685 883f
00000040: 2b77 70bf 2fb5 8c3f f786 85bf 08ff 6b3f
00000050: 62f1 81bf 5dc8 763f e660 86bf e0e9 6f3f
00000060: 88eb 83bf bb8d 6d3f bc81 7b3f c454 863f
00000070: e2a1 6d3f 52ef 84bf bcba 8b3f 82c9 6a3f
00000080: 01b6 7cbf 974c 663f 7225 85bf 184c 7abf
00000090: 50d1 853f 9641 6cbf ee2c 8bbf 726e 653f
000000a0: 9546 8abf b9a2 883f ad2d 67bf 71aa 68bf
000000b0: fa53 75bf 2fad 7cbf c3ab 793f ed7b 8b3f
000000c0: d003 83bf 5390 853f e12c 613f 50fb 83bf
000000d0: 38e9 6a3f 4504 77bf 8c69 6abf a86f 84bf
000000e0: 479a 8e3f b414 8f3f 8b0f 773f b950 8dbf
000000f0: 5a4d 88bf 408d 863f 1a33 653f 3970 84bf
00000100: 54bc 8ebf 76a7 6b3f 8f12 8f3f fe75 61bf
00000110: 16fb 87bf c8f2 83bf ec9c 89bf 185b 8c3f
00000120: 184b 6fbf dc02 87bf 5ddf 7c3f 5622 89bf
00000130: 2947 8bbf ea0e 87bf 056f 6abf 647d 893f
00000140: 3449 84bf bc8c 713f 75d2 86bf 88b2 863f
00000150: 4255 86bf ec4e 833f ed30 88bf 748f 833f
00000160: e29f 7bbf 253b 7e3f 1fe4 733f 1972 843f
00000170: 2926 8d3f 8dfb 82bf 8431 873f 649e 883f
00000180: ad70 8abf 5a85 7d3f b94a 86bf 6989 89bf
00000190: e56d 823f c4a9 6cbf ef01 86bf 4d16 703f
000001a0: 4dc7 79bf cd5e 823f 24a1 66bf 8e4a 7bbf
000001b0: 8dce 79bf 7592 61bf 3d13 883f 24ab 8d3f
000001c0: 6cdd 67bf 580f 8c3f 332d 623f b5e7 8abf
000001d0: 194a 733f 6858 8cbf 0259 7ebf 5185 6cbf
000001e0: a7c5 8e3f c001 8c3f 72a4 753f 19ea 70bf
000001f0: 1c67 89bf a138 843f ac66 643f 3a1b 79bf
00000200: ea5a 60bf 0dd8 81bf 5f3c 6dbf 7efb 6c3f
00000210: e8f5 643f 8cb4 85bf c101 62bf e48c 893f
00000220: a26d 723f 735e 863f 615f 833f 9cf1 7d3f
00000230: 2f3f 6f3f 22a7 8c3f 0894 703f ff2c 843f
00000240: c4de 8ebf f2e6 66bf 5665 7f3f ce44 60bf
00000250: 9488 873f f833 8ebf 02d0 81bf 4a3d 823f
00000260: 79d1 7e3f 7f7d 83bf 81c2 89bf 63eb 773f
00000270: d50d 8f3f 92a1 693f 2a88 73bf 1b4c 8e3f
00000280: 6a1b 7abf d6f4 773f 03ce 723f 46b0 6f3f
00000290: de76 713f a53c 79bf 6178 80bf 50a6 66bf
000002a0: 079e 6e3f 9c53 8f3f 8b52 813f 4170 8abf
000002b0: 9632 7bbf f676 7bbf c4c9 863f e831 7e3f
000002c0: 2b7f 723f 18c7 833f bc9c 7ebf 8b84 8bbf
000002d0: 6ebe 803f 9a36 76bf 5d21 623f 5ba0 6a3f
000002e0: f6a5 84bf 7e93 77bf e60a 80bf 6daf 76bf
000002f0: 92db 8bbf 59f6 773f f0f4 853f aebc 6b3f
00000300: f250 82bf 33cc 6d3f 1f07 773f ad3d 82bf
00000310: 20e2 84bf 9804 88bf 75cc 83bf b7fb 8a3f
00000320: a824 6abf 0823 79bf 5efa 863f 348d 8bbf
00000330: 96a1 8cbf 0132 84bf 56ba 7bbf 52cd 623f
00000340: 9b34 74bf 82d4 713f 7e80 7fbf 0b9e 8f3f
00000350: 70a7 79bf d6a5 6e3f c231 80bf cd64 6f3f
00000360: aa30 69bf ece4 753f 08c5 783f 6286 723f
00000370: b3a5 803f 7513 70bf 930f 873f 98d4 7c3f
00000380: 4a02 83bf f5d3 8b3f 144f 86bf fc25 74bf
00000390: 44db 8d3f 5635 79bf bd65 60bf 6a74 893f
000003a0: 0a77 7dbf 88e3 6c3f 8dab 73bf 7a92 61bf
000003b0: 195a 66bf bafa 85bf 085e 803f 4ffe 813f
000003c0: c531 61bf 127c 8a3f a4fe 683f feb9 86bf
000003d0: 8059 8a3f 14c6 66bf d7c3 81bf 4266 7bbf
000003e0: 74b2 693f 0622 6f3f 3eb1 893f aef0 80bf
000003f0: 746e 73bf 12cf 883f 04ba 683f e2f6 65bf
-1.0922996 0.9218427 1.086226 -0.94773364 -1.0180962 -1.028385 -0.92215556 1.0305648
-0.94361806 -0.960938 1.0470351 -0.89050496 -1.0402682 -0.9853726 -0.95757234 1.0665767
-0.93931836 1.0992793 -1.0431813 0.9218602 -1.0151789 0.9639948 -1.0498321 0.9371624
-1.0306253 0.9279439 0.98244834 1.0494618 0.9282514 -1.0385535 1.0916362 0.91713727
-0.98715216 0.89960617 -1.0402052 -0.9777236 1.0454502 -0.92287576 -1.0873086 0.8962165
-1.080279 1.0674659 -0.9030407 -0.9088507 -0.95831263 -0.9870176 0.9752771 1.0897194
-1.0235538 1.0434669 0.87959105 -1.031107 0.91762114 -0.9649089 -0.915673 -1.0346575
1.1140832 1.1178193 0.9650809 -1.104026 -1.0648606 1.0511856 0.895311 -1.0346748
-1.1151223 0.920524 1.1177539 -0.88070667 -1.06235 -1.0308466 -1.0751014 1.09653
-0.9347396 -1.0547748 0.98778325 -1.0713603 -1.0881091 -1.0551426 -0.9157565 1.0741391
-1.033484 0.9435537 -1.0532976 1.0523233 -1.0494769 1.025846 -1.0639931 1.0278153
-0.98290837 0.99309 0.9526996 1.034732 1.102727 -1.0233017 1.0561986 1.0673337
-1.0815636 0.99031603 -1.0491554 -1.0745059 1.0189787 -0.9244654 -1.046934 0.9378403
-0.97569734 1.0185181 -0.9008963 -0.98160636 -0.97580796 -0.881141 1.0630871 1.1067853
-0.9057224 1.0942183 0.8835022 -1.0851961 0.9503494 -1.096448 -0.99354565 -0.92390925
1.1154069 1.0938034 0.9595405 -0.94107205 -1.0734591 1.0329782 0.89219165 -0.9730717
-0.87638724 -1.0144058 -0.92670244 0.92571247 0.89437723 -1.0445724 -0.88283926 1.0746121
0.94698536 1.0497574 1.0263482 0.9919679 0.93455786 1.0988505 0.9397588 1.0326232
-1.1161733 -0.90196145 0.99764 -0.8760499 1.0588555 -1.110961 -1.0141604 1.0174954
0.9953838 -1.0272673 -1.0762483 0.96843547 1.1176096 0.9126216 -0.95129645 1.1116976
-0.9769808 0.96857965 0.948456 0.93628347 0.94322 -0.9735816 -1.0036737 -0.9009752
0.9320988 1.119739 1.0103315 -1.0815507 -0.98124063 -0.98228395 1.0530324 0.992949
0.9472529 1.0295134 -0.9945791 -1.0899824 1.0058115 -0.96177065 0.8833216 0.91650933
-1.0363147 -0.9670943 -1.0003326 -0.9636143 -1.0926383 0.9686027 1.0465374 0.9208478
-1.0180953 0.9288971 0.9649524 -1.0175072 -1.0381508 -1.0626402 -1.029677 1.0858067
-0.91462183 -0.9731908 1.0545156 -1.0902467 -1.0986812 -1.032776 -0.983312 0.88594544
-0.9539277 0.94464886 -0.9980544 1.1220106 -0.97521114 0.93221796 -1.0015185 0.93513185
-0.9108988 0.9605243 0.97175646 0.947363 1.0050567 -0.9377969 1.0551628 0.9876189
-1.0235074 1.0924059 -1.0492883 -0.9537046 1.108254 -0.9734701 -0.8765524 1.0738652
-0.99009764 0.92534685 -0.9518364 -0.8811413 -0.8998123 -1.0467141 1.0028696 1.0155734
-0.8796657 1.0819113 0.9101355 -1.052551 1.0808563 -0.90145993 -1.013789 -0.9820291
0.9128792 0.9341129 1.0757215 -1.007345 -0.95090413 1.0688193 0.9090884 -0.8982984

lstm.weight_ih_l1 f4 [256, 64]
00000000: 7281 7e3f 950b 52bf 7cc1 863f a0b3 75bf
00000010: 1b50 8b3f f3d5 6fbf d0f5 853f 8a0a 7a3f
00000020: 9f35 83bf 381a 753f 2bb1 763f 4c6f 8cbf
00000030: 2ba6 61bf 4682 8a3f 21d5 7abf 8d39 68bf
00000040: 29bf 8a3f 845d 8abf 9ecc 5d3f 065f 6a3f
00000050: 2cbd 89bf 4a19 75bf 56f2 72bf 72ab 2f3f
00000060: 0ad8 89bf 372d 623f 3a04 86bf 0e72 67bf
00000070: 686e 743f e82a 663f 72bb 603f cdb9 77bf
00000080: be2a 843f 62d6 873f af52 6f3f 8608 f7be
00000090: c427 73bf 70a9 6abf 6934 66bf 0c45 723f
000000a0: 765e 6f3f c3da 773f f961 81bf ac01 61bf
000000b0: 3cfd 4abf 1a12 81bf 0798 873f 6de8 4ebf
000000c0: 465f 5f3f 30ae 583f dae2 66bf 6a8a 603f
000000d0: 7e7a 823f e5a6 633f c2a4 823f ec46 803f
000000e0: b680 8dbf 137e 83bf af52 5fbf f53c 7d3f
000000f0: bedd 623f 351e 87bf da4b 743f 9a8c 6cbf
00000100: ec81 863f e493 8dbf bfdb 66bf 4029 81bf
00000110: 238a 88bf b75f 843f 7555 6b3f 9dfc 893f
00000120: 5405 6bbf 9d94 76bf 8406 8e3f 6cca 71bf
00000130: 3a96 7dbf 5914 87bf b5e3 80bf 2d80 803f
00000140: 9252 6a3f 991c 8dbf f949 8abf cf8f 81bf
00000150: 0280 83bf ba7e 74bf 1c4d 7f3f ae56 6c3f
00000160: ba6b 81bf 44ad 87bf 6d84 84bf fd98 6f3f
00000170: 163b 8e3f f28c 87bf 1845 62bf 8829 8a3f
00000180: 5881 603f 37a4 8e3f cacc 8bbf d85e 88bf
00000190: 6a75 783f d83f 8f3f f87b 6e3f c7e6 85bf
000001a0: 0c78 67bf 97b4 873f 8abd 89bf 9ce1 713f
000001b0: 01d0 763f e28b 773f d668 843f 78ff 703f
000001c0: 2222 82bf 743d 633f c59d 82bf 6791 7f3f
000001d0: eb0e 8d3f 44d6 8f3f 45b8 76bf 62c6 63bf
000001e0: 78be 69bf adc9 76bf 21c5 63bf ccb8 833f
000001f0: 77d5 7f3f 18bb 803f 42fc 803f 14de 6cbf
00000200: 0061 7cbf 039c 8b3f 1044 8d3f 970d 7e3f
00000210: cd00 803f 3410 69bf 0ff2 81bf dc09 81bf
00000220: 63fd 613f 43ef 8b3f 65f6 71bf 5e29 743f
00000230: 4bd3 613f 7298 853f aeb1 733f 79eb 80bf
00000240: 74f8 63bf cd6d 643f 0f46 863f 342e 8e3f
00000250: e7da 793f 5c73 7e3f c981 85bf 2740 76bf
00000260: 76dd 8e3f 3cb6 863f 878f 893f 41d7 68bf
00000270: fd81 89bf adce 883f 99fb 8d3f e770 8cbf
00000280: 96a2 6bbf 1689 87bf 2b9b 863f ba78 833f
00000290: 9975 8abf 8d93 86bf d634 7ebf c4f7 8c3f
000002a0: 7285 743f 5c4a 84bf b3e2 743f 700d 89bf
000002b0: e0d1 8abf 7c1a 85bf fc3a 87bf 4b43 8abf
000002c0: 6576 693f 5fc3 6bbf 10fe 7b3f 1091 87bf
000002d0: bb22 80bf d091 83bf 42a6 893f 9484 813f
000002e0: 8451 653f 63ef 803f 5f7a 8e3f d1f2 82bf
000002f0: 2854 81bf 61a5 82bf fec9 64bf 3958 843f
00000300: a0c4 873f 55ac 84bf dae7 78bf 7bbb 6bbf
00000310: be23 69bf a04d 8d3f bdfc 663f 705d 863f
00000320: 1c07 85bf b532 77bf 2216 6c3f 83c9 85bf
00000330: 054d 83bf 94d7 79bf 30db 84bf 1447 803f
00000340: 283e 693f 42ac 6fbf 7f74 74bf cc8f 61bf
00000350: 886c 8ebf f6d4 84bf dd50 853f 1b9a 673f
00000360: ba99 7abf 588f 8bbf 3b72 88bf b656 8a3f
00000370: c62e 8c3f ba5b 66bf 04c2 68bf 3be3 853f
00000380: 3c4c 853f 5a25 893f 8f1b 7abf 63f6 8abf
00000390: f73b 613f 3b50 713f 4208 703f 3f34 7ebf
000003a0: d324 8abf 6dc4 873f 3dc7 6abf e96d 8f3f
000003b0: b455 763f 2197 6c3f e5eb 8c3f 78dc 613f
000003c0: 65b0 8fbf eae2 893f b395 69bf 0d2f 6b3f
000003d0: cbff 893f 9f2c 773f e232 86bf 0571 8cbf
000003e0: efb1 8abf 5d88 70bf 9a2c 7dbf 5fdc 633f
000003f0: 285c 683f c8a8 8c3f 76dd 873f f6d8 71bf
0.9941627 -0.8204892 1.0527797 -0.9597721 1.0883821 -0.93685836 1.0465641 0.9767233
-1.0250739 0.9574313 0.96364087 -1.0971465 -0.8814418 1.0821006 -0.9798146 -0.90712816
1.0839587 -1.0809789 0.86640346 0.91551244 -1.0760856 -0.95741713 -0.94901025 0.6862098
-1.0769055 0.8835024 -1.047004 -0.9040841 0.95480967 0.8990922 0.8778602 -0.96767884
1.0325544 1.06123 0.9348554 -0.4824869 -0.9498255 -0.9166479 -0.8992372 0.9463661
0.9350351 0.9681818 -1.0108024 -0.87893176 -0.79292655 -1.0083649 1.059327 -0.80823404
0.8725475 0.8464079 -0.901899 0.87711203 1.0193632 0.88926536 1.020653 1.0021644
-1.1054904 -1.027285 -0.8723554 0.9892114 0.886196 -1.0556093 0.9542824 -0.9240204
1.0508399 -1.1060758 -0.90179056 -1.0090714 -1.0667156 1.034171 0.9192727 1.0780216
-0.91805005 -0.96320516 1.1095738 -0.94449496 -0.9905735 -1.0553085 -1.0069491 1.0039116
0.9153224 -1.1024352 -1.0803825 -1.0122012 -1.027344 -0.9550587 0.99727035 0.9231976
-1.0111 -1.0599751 -1.0352913 0.93592817 1.1111782 -1.0589888 -0.8838668 1.0793924
0.8769736 1.1143864 -1.0921872 -1.0653944 0.9705416 1.1191359 0.9315791 -1.0461053
-0.9041755 1.0601987 -1.0760968 0.9448488 0.9641114 0.9669782 1.0344493 0.94139814
-1.0166667 0.88765645 -1.0204397 0.9983124 1.1020178 1.1237264 -0.96374923 -0.88974583
-0.9130626 -0.9640148 -0.8897267 1.029077 0.99935097 1.0057096 1.0076983 -0.92526364
-0.9858551 1.0906986 1.1036396 0.99239486 1.0000244 -0.9104035 -1.0151995 -1.0081134
0.8827726 1.0932392 -0.94516593 0.9537562 0.8821303 1.0437148 0.9519299 -1.007186
-0.89050984 0.8923004 1.049013 1.110785 0.97599643 0.99394774 -1.0430232 -0.9619164
1.1161335 1.0524364 1.0746926 -0.9095345 -1.0742794 1.0688072 1.1092407 -1.0971955
-0.9204496 -1.058871 1.0516104 1.0271218 -1.0817138 -1.0513779 -0.9929937 1.1013112
0.9551612 -1.0335193 0.95658416 -1.0707226 -1.0845299 -1.0398707 -1.0564876 -1.0801786
0.9119628 -0.9209499 0.98434544 -1.0591145 -1.0010599 -1.0278873 1.0753863 1.0118585
0.8957751 1.0073055 1.1131095 -1.0230352 -1.0103807 -1.020672 -0.89370716 1.0339423
1.060688 -1.0365092 -0.9722878 -0.9208295 -0.91070163 1.1039314 0.902294 1.0497265
-1.0392795 -0.9656175 0.9222127 -1.0452121 -1.025788 -0.9759457 -1.0379391 1.0021691
0.9111047 -0.9362222 -0.9549026 -0.8811004 -1.1126871 -1.037749 1.0415303 0.9046952
-0.9789082 -1.090312 -1.065986 1.0807712 1.0951774 -0.89983714 -0.90921044 1.045997
1.041389 1.0714524 -0.976983 -1.0856441 0.87982124 0.94263047 0.937626 -0.9929847
-1.0792488 1.0606819 -0.91710263 1.1205417 0.9622452 0.92418104 1.1009489 0.88227034
-1.1225706 1.0772374 -0.9124405 0.9186867 1.0781187 0.9655246 -1.0484278 -1.0971991
-1.0835551 -0.93958074 -0.9889618 0.89008135 0.9076562 1.0989008 1.061446 -0.9447168

lstm.weight_hh_l1 f4 [256, 64]
00000000: 8d09 6a3f ff3f 63bf 005f 2e3f df72 4d3f
00000010: 9981 833f ab38 693f 9acc 64bf dc8e 6fbf
00000020: 5b6e 6dbf 9268 85bf 11b7 3a3f 12cd 6dbf
00000030: 5525 7bbf 9cf1 85bf 20b8 773f 65f6 5d3f
00000040: 5f69 83bf f66e 703f 5f96 6dbf 42ca 89bf
00000050: b04a 8bbf b4a4 72bf bdf2 603f 6605 71bf
00000060: a48c 133d c9a8 80bf 689f 803f e173 7e3f
00000070: ce88 803f a2a6 723f 2eca 783f 8e69 7d3f
00000080: a6df 59bf 9f23 8a3f 88c6 783f 60e0 733f
00000090: 5283 4cbf b07e 3c3f 828d 253f 2e07 783f
000000a0: efde 78bf 01dc 69bf bfd4 5e3f b885 203f
000000b0: 69d0 87bf 49bb b33e 554f 86bf 711b 813f
000000c0: 0a03 79bf 6ee9 80bf 1277 4a3f f8f6 6b3f
000000d0: 8d50 1a3f dede 55bf d5f1 4c3f 4be9 e1be
000000e0: b4f7 893f 87c2 6e3f 80c3 63bf 6249 86bf
000000f0: a401 653f 5bc0 5c3f 9c40 5c3f b4e0 5fbf
00000100: 94c5 663f 621e 89bf 5c4c 6d3f 84f7 723f
00000110: 2117 7e3f e2d0 863f 3b5e 83bf 3b20 83bf
00000120: 5c42 87bf 9d12 80bf 4c60 6ebf ff74 8abf
00000130: 00bc 73bf 2b47 8abf 718e 85bf 0b44 7d3f
00000140: e940 7d3f cc51 713f e80b 68bf 2076 85bf
00000150: 24a5 76bf 911b 6a3f 7de4 763f 1a46 8dbf
00000160: 1066 70bf 15a0 733f cd47 783f f105 8c3f
00000170: 5f2d 813f ee85 69bf 49d0 833f 2b1a 843f
00000180: 7417 7ebf b159 613f cb1d 85bf 8a8d 863f
00000190: 2272 66bf 85cb 8c3f b1c3 883f 0ed2 633f
000001a0: 5f62 73bf dc58 89bf d6cb 7b3f 7335 803f
000001b0: 8331 7cbf d022 6d3f 5512 8cbf 3ff1 8e3f
000001c0: 1edd 813f b06f 6ebf 2822 883f 39c0 6abf
000001d0: 8efd 86bf ed12 85bf 5699 723f 3446 6c3f
000001e0: 4875 713f 06e0 67bf 5294 8ebf 38cf 89bf
000001f0: 1225 8b3f 9443 7b3f 17f9 843f e4e4 82bf
00000200: 6137 2bbf b081 7a3f 8e04 8ebf 6325 8bbf
00000210: 44ce 86bf 6a8a 8cbf b610 853f 500f 713f
00000220: 4ace 773f 558d 643f d85b 673f 54ea 8b3f
00000230: 1e18 743f 0d8f 8c3f 54b1 893f 65b3 7dbf
00000240: 587a 8cbf f216 78bf ba24 863f 0c28 813f
00000250: 6c4b 7f3f da33 84bf f0ed 8ebf f0ec 6b3f
00000260: 2088 863f 3153 6ebf a681 83bf ec94 81bf
00000270: 1dd6 83bf 468c 7e3f 7c7d 7abf d4ee 82bf
00000280: d9cf 813f aad6 80bf cfe1 853f 88a0 7ebf
00000290: 46a8 833f dcef 6dbf 7726 7ebf a198 80bf
000002a0: d5ad 7c3f 9b1c 7c3f 1c66 7cbf 9640 65bf
000002b0: 1ba2 693f fdd2 8fbf f003 8f3f a494 8abf
000002c0: f453 8cbf 8fe7 8d3f 42a5 6ebf 4ec7 793f
000002d0: 362c 8a3f a62f 643f 45ba 5fbf 2613 69bf
000002e0: 31b5 87bf 5feb 8a3f 1706 8f3f cbb9 8e3f
000002f0: 4589 81bf ea29 83bf afeb 84bf dd12 8f3f
00000300: 7298 773f c4c2 75bf 0505 6e3f c298 713f
00000310: 3000 753f 6fa8 8a3f 4136 6ebf 8c87 74bf
00000320: d76e 87bf e38f 8abf 16aa 74bf ec0c 80bf
00000330: 4905 8fbf 328c 8cbf 842c 63bf 3538 733f
00000340: ff12 813f 4756 683f b8a9 64bf be78 7bbf
00000350: abaa 83bf 67db 8e3f 68f3 623f 9e1a 60bf
00000360: 539e 68bf 01e9 843f 6531 803f 8b0d 813f
00000370: a0c3 8f3f e627 8bbf 9d0c 743f 7b39 843f
00000380: 8011 61bf c8b8 7c3f 29b7 60bf 308f 683f
00000390: 0819 66bf e87f 783f b761 8a3f 1fd2 693f
000003a0: 4daf 81bf 6310 78bf fbba 843f 59e2 8f3f
000003b0: 3a92 8cbf fc94 803f 0fe6 77bf ea98 8a3f
000003c0: 8ec6 6a3f 3306 84bf bacb 683f a3ba 67bf
000003d0: 5300 72bf 429e 67bf b8d5 713f 7a8a 613f
000003e0: d98a 633f 719e 6dbf e1d6 84bf e6c1 65bf
000003f0: abfb 773f 3cb7 883f d5c7 783f 5776 88bf
0.91420823 -0.88769525 0.6811371 0.80253404 1.0273925 0.91102093 -0.893747 -0.9357736
-0.92746514 -1.0422537 0.7293559 -0.9289104 -0.9810384 -1.0464358 0.9676533 0.86704093
-1.0266532 0.9391931 -0.92807573 -1.0764849 -1.0882168 -0.9478257 0.8787039 -0.9414886
0.036022797 -1.0051509 1.0048647 0.9939557 1.004175 0.9478551 0.971835 0.9898919
-0.85106885 1.0792121 0.97177935 0.95264244 -0.7988788 0.7363081 0.6466905 0.96885955
-0.9721517 -0.91351324 0.87043375 0.6270404 -1.0610477 0.35103825 -1.049296 1.00865
-0.9727026 -1.0071237 0.79087937 0.9217372 0.6027916 -0.83543193 0.80056506 -0.441233
1.0778718 0.93265575 -0.88970184 -1.0491145 0.8945563 0.8623101 0.86036086 -0.87452245
0.9014523 -1.0712397 0.9269464 0.9490893 0.9925404 1.0532496 -1.0263132 -1.0244211
-1.0567126 -1.000568 -0.9311569 -1.0816954 -0.9520874 -1.0802969 -1.0434095 0.9893195
0.9892717 0.9426544 -0.9064317 -1.0426674 -0.96345735 0.91448313 0.96442395 -1.1037018
-0.93905735 0.9516614 0.9698456 1.0939313 1.0091971 -0.91219985 1.0297939 1.0320486
-0.99254537 0.88027483 -1.0399717 1.0511944 -0.900179 1.0999609 1.068472 0.88992393
-0.9507198 -1.0730243 0.98357904 1.0016311 -0.9851305 0.92631245 -1.0943094 1.1167372
1.0145605 -0.9313917 1.0635424 -0.9169956 -1.0546129 -1.0396401 0.9476522 0.9229462
0.9431958 -0.9057621 -1.1139014 -1.0766363 1.0870688 0.9814999 1.0388516 -1.0226102
-0.66881377 0.9785414 -1.109514 -1.0870785 -1.0531697 -1.0979741 1.0395725 0.9416399
0.9679915 0.89278156 0.9037452 1.0930886 0.953493 1.0981156 1.0757241 -0.9910186
-1.0974836 -0.9691001 1.0479958 1.0090346 0.9972446 -1.0328324 -1.1166363 0.9215841
1.0510292 -0.9309569 -1.027394 -1.0123572 -1.0299717 0.9943279 -0.97847724 -1.0229135
1.0141555 -1.006551 1.0459536 -0.994637 1.0285728 -0.9294412 -0.9927744 -1.0046579
0.98702747 0.9848115 -0.98593307 -0.89551675 0.9126298 -1.1236264 1.1173077 -1.0826612
-1.096312 1.1086291 -0.93220913 0.9756974 1.0794742 0.89135206 -0.873936 -0.91044843
-1.060217 1.085308 1.1173733 1.115045 -1.0120016 -1.0247166 -1.0384425 1.1177632
0.9671699 -0.96000314 0.9297641 0.94373715 0.9570341 1.0832652 -0.93051535 -0.9551933
-1.0580701 -1.0825161 -0.9557203 -1.0003943 -1.1173488 -1.0980284 -0.887398 0.9500764
1.0083922 0.9075665 -0.8932147 -0.9823111 -1.0286459 1.1160706 0.8865266 -0.87540615
-0.90866584 1.0383607 1.0015074 1.0082258 1.1231575 -1.0871551 0.95331746 1.0330042
-0.8791733 0.98719454 -0.8777948 0.90843487 -0.89881945 0.9707017 1.081107 0.91336244
-1.0131623 -0.96900004 1.0369562 1.1240951 -1.0982125 1.0045466 -0.96835417 1.0827916
0.9170922 -1.0314392 0.9093586 -0.9051916 -0.94531745 -0.9047586 0.94466734 0.88101923
0.8888374 -0.9281989 -1.0378076 -0.8974899 0.9686839 1.0680919 0.9717992 -1.0661114

lstm.bias_ih_l1 f4 [256]
00000000: fc9a 703f 5cc9 713f 526e 75bf 167f 7b3f
00000010: d2c4 7abf 0587 783f c6ac 713f b41b 713f
00000020: 9aff 77bf f629 853f 9f09 69bf 44f4 8e3f
00000030: c258 843f 76ad 8f3f c0d0 8b3f 8783 8f3f
00000040: 6a39 7bbf 1b6a 73bf 12ba 66bf 8a14 85bf
00000050: 165f 673f 1881 81bf 408e 643f 1227 70bf
00000060: b908 8e3f f341 833f c0e9 6b3f 92fa 6c3f
00000070: a462 6dbf ca7c 823f ef62 8d3f 5c34 803f
00000080: 9362 893f 447e 87bf 7e51 8c3f c8d4 7abf
00000090: 68dd 833f 766f 6a3f 0c37 68bf cc7f 893f
000000a0: 1b66 873f 1aea 853f fd3e 69bf ca9a 87bf
000000b0: 2473 6f3f 0ebd 72bf 2219 6f3f 81ef 79bf
000000c0: 3c77 6b3f 8ac6 78bf f85a 843f 696c 73bf
000000d0: 09b8 8cbf 6023 7fbf aa51 8f3f bfb9 87bf
000000e0: 99ef 8a3f cd3f 80bf 7cd4 68bf 3f05 6c3f
000000f0: f80e 893f bf0a 78bf 9008 613f aaaf 7b3f
00000100: c8e5 7e3f ffcf 6d3f 2ae1 88bf 6933 6f3f
00000110: acec 7cbf a3ad 873f 1b32 8b3f fbed 6a3f
00000120: 311d 83bf 441a 733f 40db 7abf b36a 723f
00000130: 07bc 8c3f 30b2 713f 981d 773f 848a 8d3f
00000140: a696 7ebf f921 63bf 96c7 7bbf 0a65 76bf
00000150: 3fee 663f f6fa 7dbf 8759 863f ab08 8abf
00000160: 241a 813f b99a 6d3f 603d 6f3f 81e7 803f
00000170: aafd 69bf f770 8d3f c1be 763f ea41 893f
00000180: ce4b 873f 9e64 8bbf 309d 633f 4d6e 87bf
00000190: daf3 8a3f c575 833f f43a 78bf 1fbd 703f
000001a0: 8463 883f 5af4 7c3f 96cc 7ebf 2a70 64bf
000001b0: f6cd 6d3f 081a 8ebf 6d01 653f fa2a 6ebf
000001c0: 4a5b 873f b51d 70bf 61ec 703f 9422 62bf
000001d0: b2fa 86bf 637d 8fbf 0a10 7f3f 21f2 8fbf
000001e0: 2d0e 6f3f 4b5f 86bf d85d 8abf 2cb5 8a3f
000001f0: 7c47 813f 0836 80bf aa05 833f e415 613f
00000200: 626a 6d3f 32b9 75bf 246e 70bf bac2 8c3f
00000210: 7f06 8cbf fc2b 813f 7272 8dbf 24ee 8ebf
00000220: 9762 6e3f 96b2 88bf 2874 833f 4d90 8fbf
00000230: b120 8bbf fd60 86bf 12e0 81bf 08e2 813f
00000240: 2177 72bf fab2 66bf becd 6f3f 537d 783f
00000250: 7247 86bf bb89 8dbf 349f 8a3f ca49 7a3f
00000260: 3c51 82bf 9201 8c3f 357d 8f3f 8c8f 8d3f
00000270: b8f7 68bf 7ccf 67bf 170e 893f 5239 753f
00000280: bede 8cbf 8a3b 6abf ddb8 8bbf 74a1 6fbf
00000290: 87fb 7bbf 1bd9 8b3f d830 67bf 2f2c 783f
000002a0: 02e4 89bf 6f42 79bf 2113 6bbf 65f1 67bf
000002b0: 3c0e 82bf c558 69bf bff7 8fbf 3829 8bbf
000002c0: e01d 843f 2a9f 833f 0068 7d3f 8cad 6b3f
000002d0: b4e9 853f 617f 603f 4bc8 7a3f 731f 85bf
000002e0: 3f86 8c3f f372 733f 4ede 693f b453 82bf
000002f0: 8738 8e3f 3a40 83bf 1ce1 8b3f f820 76bf
00000300: d66a 843f b025 8b3f 2146 70bf 7060 783f
00000310: a9d7 8cbf 447d 7c3f 66e5 813f 8a0d 8f3f
00000320: 1159 6ebf 8403 8c3f 816f 62bf f5a4 793f
00000330: de50 8a3f f803 773f 94c6 603f 984b 7a3f
00000340: f859 6ebf a8d2 86bf 82cb 74bf 7a1b 82bf
00000350: 6e20 6b3f 15de 8fbf 6b0c 883f 9cdc 6cbf
00000360: c51d 6a3f 897d 8f3f 64b1 873f fada 793f
00000370: 58fe 67bf baff 6f3f 152f 8b3f 4630 693f
00000380: 8665 7d3f 1c39 69bf e4c6 813f 68d3 76bf
00000390: 1405 673f ee4d 753f 8055 87bf fe1e 7e3f
000003a0: e896 6f3f c2e0 793f 2bb2 7cbf b436 8dbf
000003b0: c305 883f b22b 78bf 769e 743f 1260 75bf
000003c0: 567e 703f 31f6 76bf 59a1 653f ea1a 80bf
000003d0: 55cd 84bf 4d8d 85bf cbff 6b3f 76c1 81bf
000003e0: c6d6 723f 8b9f 88bf 054c 8dbf 290e 733f
000003f0: fa8b 8e3f be40 8fbf 72b5 783f 0293 7e3f
0.9398649 0.94447875 -0.9587146 0.9824079 -0.97956574 0.97081023 0.94404256 0.94182897
-0.9687439 1.040343 -0.91030306 1.1168294 1.0339587 1.1224811 1.092308 1.1212014
-0.9813448 -0.9508378 -0.9012767 -1.0396893 0.90379465 -1.0117521 0.89279556 -0.93809617
1.1096412 1.0254501 0.9215355 0.9256984 -0.9272864 1.0194333 1.1045817 1.0015979
1.0733207 -1.0585408 1.096237 -0.9798093 1.0301943 0.91576326 -0.90708995 1.0742126
1.0578035 1.0462067 -0.9111174 -1.0594113 0.93535066 -0.94819725 0.93397725 -0.9763108
0.9197881 -0.97177947 1.0340261 -0.95087296 -1.0993663 -0.9966335 1.1196797 -1.060356
1.0854369 -1.001947 -0.90949225 0.92195505 1.0707693 -0.968914 0.8790369 0.9831492
0.9956937 0.928955 -1.0693715 0.9343782 -0.9879863 1.0599865 1.0874666 0.9176938
-1.0243284 0.94961953 -0.979908 0.9469406 1.0994881 0.9441252 0.9652953 1.1057897
-0.9944862 -0.88723713 -0.9835142 -0.96247923 0.90207285 -0.9921106 1.0496072 -1.0783895
1.0086102 0.92814213 0.93453026 1.0070649 -0.91402686 1.1050099 0.9638482 1.072324
1.0570009 -1.0890081 0.88911724 -1.0580536 1.0855668 1.0270315 -0.96964955 0.94038576
1.065537 0.9881035 -0.99530923 -0.8923365 0.92892396 -1.1101694 0.894553 -0.9303433
1.0574734 -0.9379533 0.94110686 -0.8833401 -1.0545256 -1.121014 0.9963385 -1.1245767
0.93381006 -1.0497831 -1.0809889 1.0836539 1.009994 -1.0016489 1.0236104 0.8792403
0.9274045 -0.9598571 -0.9391806 1.0996926 -1.0939482 1.0091548 -1.1050551 -1.1166425
0.93119186 -1.06795 1.0269823 -1.1215912 -1.0869352 -1.0498348 -1.0146506 1.0147104
-0.94713026 -0.90116847 0.9367331 0.9706623 -1.0490553 -1.1057657 1.0829835 0.97768843
-1.0181041 1.0937979 1.1210085 1.1059432 -0.9100299 -0.9055097 1.0707425 0.9579059
-1.1005476 -0.914971 -1.0915791 -0.9360573 -0.98430675 1.092563 -0.90308905 0.9694242
-1.0772707 -0.97366995 -0.91826063 -0.90602714 -1.0160594 -0.91151077 -1.1247481 -1.0871954
1.0321617 1.0282948 0.98986816 0.92061687 1.0461946 0.87694365 0.9796187 -1.0400223
1.0978469 0.95097274 0.91354835 -1.0181794 1.1111001 -1.0253975 1.0928073 -0.96144056
1.0345104 1.0870876 -0.9385701 0.9702215 -1.1003314 0.9862864 1.0148132 1.1176007
-0.93104655 1.0938573 -0.8845139 0.9751733 1.0805929 0.9649043 0.87803006 0.97771597
-0.9310603 -1.0533037 -0.9562303 -1.0164635 0.9184636 -1.1239649 1.062879 -0.92524123
0.91451675 1.1210185 1.060101 0.97599757 -0.9062247 0.9374958 1.0873743 0.91089284
0.9898304 -0.91102767 1.0138822 -0.9641633 0.90242124 0.95822036 -1.0572968 0.9926604
0.9358964 0.9760858 -0.9870936 -1.1032319 1.0626758 -0.96941674 0.9555429 -0.95849717
0.93942773 -0.9646941 0.8969932 -1.0008214 -1.0375162 -1.0433747 0.92187184 -1.0137165
0.9485897 -1.0673689 -1.1038824 0.9494348 1.1136467 -1.1191633 0.97151864 0.99443066

lstm.bias_hh_l1 f4 [256]
00000000: b8f2 8d3f f81e 893f f2f0 85bf 6fc0 853f
00000010: eb18 82bf 8494 763f b393 7d3f 250a 8c3f
00000020: 74a4 8cbf e3b1 833f 578b 84bf 3d43 803f
00000030: 1fc4 7d3f 5dec 773f 7efb 713f 1d09 873f
00000040: 9513 86bf 2821 6abf b0db 81bf 6f98 89bf
00000050: 4418 833f 5054 6abf 7aab 6b3f bfd4 6fbf
00000060: 1849 843f a652 8a3f dad6 753f df90 8f3f
00000070: 9437 6fbf 0de5 7b3f 2920 873f 7601 813f
00000080: 0689 8f3f d405 85bf ebab 8d3f c5f2 69bf
00000090: 8190 703f 5642 783f d1a2 86bf 7649 6f3f
000000a0: c7c1 843f 7950 7f3f 8e9f 82bf 524c 76bf
000000b0: ae91 6b3f 165e 8bbf 0d2a 613f 9001 72bf
000000c0: 49a9 7b3f 8169 85bf e2ad 6f3f 1e37 83bf
000000d0: a976 8ebf c4f4 7dbf 8821 743f 15b5 82bf
000000e0: 23e3 763f aceb 8ebf 3ff0 89bf e1af 8f3f
000000f0: 3e59 7c3f e873 86bf 3ee9 8d3f 248e 673f
00000100: 3812 703f 2d33 8e3f a967 89bf d780 873f
00000110: c784 6fbf 6a88 673f 0f13 643f 7448 8f3f
00000120: 388a 75bf 6860 623f 5649 84bf 6c31 893f
00000130: 6c37 8d3f 212e 833f c258 773f 9241 803f
00000140: 44b4 83bf 8eb3 73bf 389f 8cbf 66ab 86bf
00000150: 5e4e 883f ff04 8fbf 062e 843f 7b19 85bf
00000160: b3b3 653f 88dc 663f a22b 893f e117 693f
00000170: 21ab 70bf aabc 783f 61f5 863f fc42 6a3f
00000180: c29b 6c3f ad75 82bf 4ae8 833f 708a 69bf
00000190: 234b 853f 1462 683f 73ad 8ebf ddc1 833f
000001a0: d36c 673f 2c5d 873f 652c 62bf e1f0 81bf
000001b0: 74b5 613f fa7a 73bf a2aa 823f 9538 88bf
000001c0: 2231 8f3f af33 83bf 3632 773f 79ec 8abf
000001d0: 3e97 8ebf e55e 68bf 1ab7 753f 1c10 89bf
000001e0: de08 8c3f 1f5d 63bf 70fa 6fbf cea1 603f
000001f0: 1d99 8d3f 401a 84bf 7c90 893f 2c27 6c3f
00000200: cf64 8b3f 6dde 83bf 7614 7fbf 468d 6c3f
00000210: 3462 63bf a628 883f 74e7 8dbf 7a3a 6dbf
00000220: 15fe 6f3f c67a 8cbf 6458 7e3f b03e 85bf
00000230: b8c8 74bf c8b4 86bf 9cb8 70bf f483 893f
00000240: c5e6 81bf 3f4e 84bf aa28 7b3f 0e36 633f
00000250: 0243 82bf 407d 68bf 8f7e 833f d09b 743f
00000260: eb47 73bf 3e8a 643f 1770 8f3f b7ab 863f
00000270: 8500 83bf 0111 8dbf 0ade 7b3f 6266 8f3f
00000280: 783e 88bf 648b 73bf 8c4c 63bf 6c33 7abf
00000290: e11e 83bf ab3a 633f 1fab 80bf 6760 863f
000002a0: 2a77 74bf 9411 7fbf 90cf 7dbf a9bf 82bf
000002b0: 844c 87bf 942b 89bf 64b8 86bf 54a2 60bf
000002c0: 22e5 793f 0d3b 633f 0011 8a3f 6484 723f
000002d0: ab4f 7c3f dc63 8c3f 391c 873f 5543 74bf
000002e0: 2132 7d3f 3aa0 853f 520e 883f adaf 8ebf
000002f0: 8a86 853f de2a 6fbf 5ccb 793f b72c 8fbf
00000300: ba75 873f 2999 803f 2b4c 8abf 660e 853f
00000310: 5138 7fbf 68f0 743f 917c 613f 46e2 683f
00000320: da0f 84bf 034a 8c3f 88f1 77bf 480b 6b3f
00000330: 13dd 853f 2e1a 793f 396d 8d3f 5aba 653f
00000340: 94cc 77bf da14 6ebf 233d 83bf f3f0 78bf
00000350: 628f 8e3f 78a2 6dbf 9609 8d3f f21c 61bf
00000360: f778 8c3f 6ff5 8d3f d84c 7f3f 4cb8 8c3f
00000370: 0469 74bf 37ae 8a3f 32a8 773f b4a1 8d3f
00000380: d66f 833f daa6 64bf 8552 8b3f 8d17 68bf
00000390: ab03 893f 7669 893f c2dc 8abf dc56 7c3f
000003a0: 086c 863f 933c 793f 5a8a 89bf 0b92 88bf
000003b0: 8a29 853f 0c76 7abf 3e70 663f f31d 64bf
000003c0: e18e 843f b825 68bf c576 763f d029 84bf
000003d0: 2a85 8abf c4bc 6dbf 2f53 783f 8058 89bf
000003e0: 7b42 813f a62c 73bf 9db8 85bf 411c 8b3f
000003f0: a971 853f c327 83bf f73d 873f 72f7 7e3f
1.1089697 1.0712576 -1.0464156 1.0449351 -1.0163854 0.96320367 0.99053496 1.0940596
-1.0987687 1.0288662 -1.0355023 1.002052 0.9912738 0.96845037 0.9452437 1.0549656
-1.0474726 -0.9145684 -1.0145168 -1.0749644 1.024178 -0.915349 0.9205853 -0.93684
1.0334806 1.0806472 0.9603096 1.1216086 -0.9344418 0.9839638 1.055669 1.0078571
1.1213691 -1.0392404 1.106809 -0.9138606 0.93970495 0.9697622 -1.0518438 0.9347147
1.0371636 0.99732167 -1.0204942 -0.96210206 0.92019165 -1.0888088 0.8795479 -0.94533634
0.98305184 -1.0422822 0.936247 -1.0251195 -1.1129962 -0.9920161 0.95363665 -1.0211512
0.96440333 -1.1165671 -1.0776442 1.1225549 0.9857367 -1.0504122 1.1086805 0.90451264
0.937778 1.1109368 -1.073476 1.0586194 -0.9356198 0.90442526 0.8909158 1.1193986
-0.9591403 0.88428354 -1.033488 1.0718207 1.1032538 1.0248452 0.9661981 1.002001
-1.0289388 -0.95195854 -1.098609 -1.0521057 1.0648916 -1.11734 1.0326545 -1.0398401
0.89727324 0.90180254 1.0716441 0.9105206 -0.9401112 0.9716288 1.0543634 0.9150846
0.9242517 -1.0192162 1.0305264 -0.91226864 1.0413555 0.90774655 -1.1146683 1.0293537
0.9040043 1.0575309 -0.8834899 -1.0151635 0.881675 -0.9510952 1.0208323 -1.0642267
1.1186869 -1.0250148 0.9656099 -1.0853416 -1.1139905 -0.907698 0.95982516 -1.0708041
1.0940206 -0.88813967 -0.9374151 0.87746894 1.1062351 -1.0320511 1.0747218 0.9224727
1.0890139 -1.0302254 -0.99640596 0.92403066 -0.8882172 1.0637405 -1.1086259 -0.92667353
0.93747073 -1.0974967 0.99353623 -1.0409756 -0.9561877 -1.052392 -0.9403169 1.0743394
-1.014855 -1.0336379 0.98108923 0.88754356 -1.0176699 -0.90816116 1.0272998 0.9555025
-0.95031613 0.8927344 1.1206082 1.0521153 -1.0234534 -1.1020814 0.9838568 1.120312
-1.0644064 -0.9513457 -0.88788676 -0.97734714 -1.0243798 0.88761395 -1.0052222 1.049817
-0.9549433 -0.996362 -0.9914484 -1.021474 -1.0570226 -1.0716424 -1.0525022 -0.87747693
0.97615254 0.8876198 1.0786438 0.9473326 0.98559064 1.0967975 1.0555488 -0.9541524
0.98904616 1.0439522 1.062937 -1.1147362 1.0431683 -0.93424785 0.97575927 -1.1185521
1.0582802 1.0046741 -1.0804495 1.0395019 -0.99695307 0.9567933 0.880807 0.90970266
-1.0317338 1.0960087 -0.9685292 0.9181409 1.0458091 0.9730557 1.1048957 0.89737475
-0.96796536 -0.93000567 -1.0253032 -0.9724266 1.1137507 -0.9282603 1.101855 -0.8793479
1.0974416 1.1090525 0.9972663 1.0993743 -0.9547274 1.0834416 0.9674102 1.1064973
1.0268505 -0.89317095 1.0884558 -0.90660936 1.0704244 1.0735309 -1.084862 0.98570037
1.0501719 0.97358054 -1.0745347 -1.0669569 1.0403302 -0.97836375 0.9001502 -0.891082
1.0356103 -0.90682554 0.9627498 -1.032526 -1.0821888 -0.9286616 0.9700193 -1.0730133
1.0098413 -0.94990003 -1.0446965 1.0867997 1.0425311 -1.0246509 1.0565785 0.9959632

fc.weight f4 [1, 64]
00000000: 446a 883f c06c 86bf 1bfc 733f d0e3 8b3f
00000010: 7ccc 6d3f f6fc 853f efc4 81bf 61f9 85bf
00000020: f0b4 71bf d9cd 85bf 3d7b 68bf de8c 84bf
00000030: 0d5e 84bf edea 82bf 20d7 89bf fa09 883f
00000040: 6e95 773f 22d0 7f3f 8e0f 6dbf b598 69bf
00000050: df23 84bf 1425 6f3f 4279 8b3f 7dde 6cbf
00000060: cc4c 85bf aa1d 883f 4162 823f 2c95 8c3f
00000070: 2c43 6a3f d63b 85bf 4095 833f b224 8e3f
00000080: 2e38 8fbf 7046 673f cee4 81bf 08d6 623f
00000090: 1af4 8abf 5434 843f bd27 6a3f 8641 823f
000000a0: 1f22 87bf bed2 8fbf 67d5 693f 1ccb 6d3f
000000b0: 04e0 84bf 060e 773f bef8 81bf 4b10 713f
000000c0: 6ef3 803f 0732 78bf e3b1 813f c65e 78bf
000000d0: 9101 68bf f9b6 6ebf 44cd 783f ccbc 603f
000000e0: 79d7 8c3f 47f4 66bf 5a93 7cbf 20d7 86bf
000000f0: 195e 813f d2ff 663f 298f 813f 0d78 8ebf
1.065743 -1.0501938 0.9530656 1.0928898 0.92890143 1.0467823 -1.0138224 -1.0466729
-0.94416714 -1.0453445 -0.90813047 -1.0355489 -1.0341202 -1.0227944 -1.0768776 1.0628045
0.96712387 0.9992696 -0.9260186 -0.9124864 -1.0323447 0.9341595 1.089638 -0.9252699
-1.0414062 1.0634053 1.0186235 1.0983024 0.91508746 -1.0408885 1.0279922 1.1104949
-1.118902 0.90341854 -1.0147951 0.88607836 -1.0855744 1.0328469 0.91466886 1.0176246
-1.0557288 -1.1236188 0.9134125 0.92888045 -1.0380864 0.96505773 -1.0154035 0.94165486
1.0074289 -0.96951336 1.0132412 -0.9701961 -0.9062739 -0.93247944 0.9718821 0.8778808
1.1003257 -0.9021649 -0.9866234 -1.0534401 1.0106841 0.902341 1.0121814 -1.1130387
