models/stock_lstm_model.pth (torch, 208822 bytes, 9 tensors)

lstm.weight_ih_l0 f4 [256, 4]
000000 49 63 82 3f 69 c8 61 3f 73 14 82 3f 7d 36 75 3f
       1.018655 0.88196427 1.0162491 0.9578627
000010 61 09 65 bf 1b 40 83 bf 3d 0f 80 bf e4 58 7a bf
       -0.89467436 -1.0253938 -1.000465 -0.97791886
000020 7c cb 79 bf 4a 8b 72 bf ba bd 78 bf fc 09 6f bf
       -0.9757612 -0.9474379 -0.971645 -0.9337461
000030 d0 19 83 bf 06 c3 0b 3f 50 cb 8c 3f 0e 11 87 3f
       -1.0242252 0.5459446 1.0999546 1.055208
000040 43 3a 82 3f 04 0c 6a 3f 22 dd 79 3f 86 2a 75 3f
       1.017403 0.91424584 0.97603047 0.9576801
000050 69 37 6e bf cc 2f 84 bf fd 7a 8c bf ce 00 79 bf
       -0.930533 -1.0327086 -1.0975033 -0.9726685
000060 ac 1b 83 3f ec ab 61 3e aa b3 5f 3f 48 2f 5d 3f
       1.024282 0.22038239 0.8738352 0.8640027
000070 3f 50 8f bf a1 24 11 bf 87 cd 76 bf 31 7c 87 bf
       -1.1196364 -0.56696516 -0.9640736 -1.0584775
000080 e1 31 6c bf c0 4e 66 bf 6d 39 86 bf e9 03 66 bf
       -0.9226361 -0.8996391 -1.0486275 -0.89849716
000090 2d 42 6c bf df 2c 83 bf 42 d8 89 bf 11 fc 7c bf
       -0.92288476 -1.0248069 -1.0769122 -0.9882212
0000a0 50 f3 89 3f 2b a8 76 3f a1 10 68 3f e0 d6 7a 3f
       1.0777378 0.96350354 0.90650374 0.97984123
0000b0 13 be 6b bf 7b 15 8a bf ad cc 8a bf 3c 79 8a bf
       -0.92086905 -1.0787805 -1.0843712 -1.0818248
0000c0 22 f7 74 bf ee c8 5f bf b2 a7 81 bf be 37 85 bf
       -0.95689595 -0.8741597 -1.0129302 -1.0407636
0000d0 22 37 71 3f 6d a2 ac 3e be 78 60 3f d2 35 64 3f
       0.9422475 0.3371767 0.8768424 0.89144623
0000e0 80 b9 8d bf f5 b5 6d bf 41 31 80 bf 32 7d 74 bf
       -1.1072235 -0.9285577 -1.0015031 -0.9550353
0000f0 d8 e0 80 3f bc 2c 53 3f 08 bb 85 3f 6d 6f 66 3f
       1.0068617 0.82490134 1.0447702 0.9001377
000100 69 c2 80 3f b0 d7 8e 3f 70 e3 81 3f 7f d5 80 3f
       1.0059329 1.1159573 1.0147533 1.0065154
000110 3a 61 6e 3f 8c 0e 45 3f 1b 46 85 3f 12 93 80 3f
       0.93117106 0.7697532 1.041202 1.0044882
000120 03 fe 8c 3f 37 cb 64 3f f2 4d 66 3f c1 dc 86 3f
       1.1015018 0.8937258 0.89962685 1.0536119
000130 1b 55 7f 3f 6b 60 0d 3f cc 05 7c 3f 07 63 82 bf
       0.99739236 0.5522525 0.98446345 -1.0186471
000140 5d 9e 6c bf 92 8c 79 bf fe ae 65 bf 72 30 7d bf
       -0.92429143 -0.9748012 -0.8972014 -0.98902047
000150 f8 33 60 3f 98 a3 6d 3f 26 27 8e 3f a2 45 81 3f
       0.875793 0.9282775 1.1105697 1.0099375
000160 3a 6c 86 bf ab 60 35 bf ab e9 67 bf a7 6a 80 bf
       -1.0501778 -0.7085063 -0.90590924 -1.0032548
000170 c4 d7 81 3f 3d 98 52 3f a7 20 8b 3f 51 41 63 3f
       1.0143971 0.8226355 1.086934 0.8877154
000180 b7 d9 84 bf c1 4c 7b bf d6 d7 63 bf 31 6d 88 bf
       -1.0378941 -0.9816399 -0.89001215 -1.0658323
000190 bc ad 6d bf a9 2e 82 bf dc 3b 75 bf 69 f9 7f bf
       -0.9284322 -1.017049 -0.95794463 -0.99989945
0001a0 e4 6c 87 bf 0a ec 81 bf e6 5a 65 bf 2b 3a 82 bf
       -1.0580106 -1.0150158 -0.89591825 -1.0174001
0001b0 fe 4a 87 3f 28 dc 6e 3f 88 3b 71 3f 47 8e 87 3f
       1.0569761 0.9330468 0.9423146 1.0590295
0001c0 ce 67 8a bf 22 cc 87 bf 4d a4 6b bf 20 bf 6a bf
       -1.0812929 -1.0609171 -0.9204758 -0.91697884
0001d0 82 d5 88 bf 0c 39 69 bf c2 ad 68 bf 91 1f 82 bf
       -1.0690157 -0.9110267 -0.90890133 -1.0165883
0001e0 75 88 85 bf 5c 1a 7d bf 78 5e 80 bf 19 23 63 bf
       -1.0432268 -0.98868346 -1.002883 -0.8872543
0001f0 78 bd 87 bf 55 fe 64 bf 3b 74 8b bf fa b2 5d bf
       -1.0604696 -0.8945058 -1.0894846 -0.8660122
000200 aa 29 84 3f b8 3d f5 3e 75 ba 87 3f fe 92 58 3f
       1.0325215 0.4789865 1.0603777 0.8459929
000210 f7 92 85 bf 17 4f 87 bf cc dc 6c bf fa 15 77 bf
       -1.0435475 -1.0571011 -0.9252441 -0.9651791
000220 40 e4 8e bf cc 7a 7c bf 0a 99 8c bf e0 41 8d bf
       -1.1163406 -0.98624873 -1.0984204 -1.1035728
000230 4c 5e 77 3f f3 dd 6d 3f 22 e8 7c 3f 1d 0f 67 3f
       0.9662826 0.9291679 0.98791707 0.90257436
000240 6f a9 85 3f 59 1d 6c 3f 17 1d 80 3f 41 b0 87 3f
       1.0442332 0.9223228 1.0008878 1.0600663
000250 0e dc 81 3f 39 66 85 3f 43 66 60 3f 31 43 8d 3f
       1.014528 1.0421821 0.8765604 1.103613
000260 da a5 79 bf 98 23 89 bf 54 2f 89 bf 45 87 61 bf
       -0.97518694 -1.0713987 -1.0717568 -0.8809703
000270 d7 a5 74 bf d2 50 8a bf a0 99 87 bf 3b d4 8e bf
       -0.9556555 -1.0805914 -1.0593758 -1.1158518
000280 78 af 66 3f ca 3b 71 3f 40 bc 8f 3f f4 27 65 3f
       0.90111494 0.94231856 1.1229324 0.8951409
000290 24 51 8d bf 18 cc 88 bf 12 bc 6c bf c3 db 8a bf
       -1.1040387 -1.0687284 -0.9247447 -1.0848316
0002a0 df 65 8b bf c0 9d 41 bf b4 b4 69 bf 3b 6f 88 bf
       -1.0890464 -0.7563133 -0.91291356 -1.0658945
0002b0 33 55 74 bf f6 a3 00 bf 4c 2c 73 bf a4 46 78 bf
       -0.95442504 -0.50250185 -0.94989467 -0.9698279
0002c0 cb cb 7d bf 15 21 70 bf 61 eb 8d bf 56 48 71 bf
       -0.9913909 -0.9380048 -1.1087457 -0.94251
0002d0 2d ad 8d bf 49 6e 36 bf 30 41 6e bf 82 af 65 bf
       -1.1068474 -0.7126203 -0.9306822 -0.8972093
0002e0 08 9c 8a 3f ad 72 41 3f 16 37 77 3f cc 0d 7c 3f
       1.0828867 0.75565606 0.9656843 0.9845855
0002f0 d9 52 8c 3f ce 56 70 3f 36 a5 79 3f f1 5d 80 3f
       1.0962783 0.93882453 0.97517717 1.0028669
000300 1b f1 73 3f e5 ce 4f 3f 7a c7 78 3f c5 5e 7e 3f
       0.9528977 0.8117507 0.9717938 0.99363357
000310 d7 0b 82 3f ea 1e 5f 3f 4d 43 7c 3f 1c e8 82 3f
       1.0159863 0.87156546 0.9854019 1.0227084
000320 8d 3d 63 bf 29 64 7c bf 3d c4 6e bf c2 ec 6d bf
       -0.88765794 -0.9859033 -0.93268186 -0.9293939
000330 c8 5a 83 bf 44 02 3b bf 04 8f 61 bf a8 0f 8b 3f
       -1.0262079 -0.7305033 -0.8810885 1.0864153
000340 e4 b2 6b 3f 8c 80 1b 3f d7 45 69 3f 0a d9 68 3f
       0.9206984 0.6074302 0.9112219 0.90956175
000350 a5 c1 68 3f 52 82 8b 3f fc 68 7f 3f 89 9d 7e 3f
       0.9092048 1.0899146 0.9976957 0.9945913
000360 c1 33 79 bf 45 62 82 bf 85 78 82 bf 2a 39 8c bf
       -0.97344595 -1.018624 -1.019303 -1.0954945
000370 fc 0d 81 3f 05 36 61 3f 56 50 67 3f 99 52 8d 3f
       1.0082393 0.8797305 0.9035696 1.1040832
000380 b3 6e 8b 3f d8 2b 67 3f d7 55 6b 3f 24 0d 8d 3f
       1.0893158 0.90301275 0.91927856 1.1019635
000390 48 4c 68 bf 2a 2e 6d bf b0 5c 68 bf 9c ca 6b bf
       -0.90741396 -0.92648566 -0.9076643 -0.9210603
0003a0 92 8e 7a bf 2f e8 4c bf 54 3a 81 bf 29 89 62 3f
       -0.97873795 -0.80041784 -1.0095925 0.8849054
0003b0 58 84 71 3f 16 4e 83 3f 5c 9e 81 3f 70 b3 6d 3f
       0.94342566 1.0258205 1.0126452 0.92851925
0003c0 15 a2 64 bf 12 0c 8c bf 70 a3 7c bf 23 f7 8b bf
       -0.8930982 -1.0941184 -0.98686886 -1.0934795
0003d0 bb 9d 65 3f 73 72 6c 3f d0 b7 8e 3f 6e cf 88 3f
       0.896938 0.92362136 1.1149845 1.0688303
0003e0 26 ab 67 bf 1c e2 5f bf c7 7b 8d bf 2a 6c 77 bf
       -0.90495527 -0.8745439 -1.1053399 -0.9664942
0003f0 d0 af 75 3f cf 58 78 3f c1 af 6a 3f 87 34 8d 3f
       0.95971394 0.9701051 0.9167443 1.1031655

lstm.weight_hh_l0 f4 [256, 64]
000000 f1 19 88 bf 2e 61 7b 3f 2c 4e 86 3f 53 f9 53 bf
       -1.0632917 0.9819516 1.0492606 -0.82802314
000010 1d 01 85 bf 96 4a 76 3f 21 f5 87 3f a2 c8 81 bf
       -1.0390965 0.9620756 1.0621682 -1.0139353
000020 54 2f 62 3f a4 d0 89 3f 52 df 70 3f 8d c7 8a 3f
       0.88353467 1.0766797 0.9409076 1.0842148
000030 b1 ac 86 3f d2 e9 7d bf 9f a7 8f bf 10 9f 6d 3f
       1.0521451 -0.99184906 -1.1223029 0.92820835
000040 47 23 80 3f db a8 61 bf a9 86 8a bf 5e c4 83 bf
       1.0010766 -0.8814828 -1.0822345 -1.0294302
000050 9a 13 85 3f 47 0e 67 3f 18 b2 84 3f fb ef 64 3f
       1.0396607 0.9025616 1.036685 0.8942868
000060 0d 03 68 3f 9a 74 86 bf 88 ab 79 bf 22 36 6e 3f
       0.90629655 -1.0504334 -0.9752736 0.9305135
000070 35 67 8c bf 4a 37 68 bf 69 42 67 bf 9f f5 85 bf
       -1.0968996 -0.90709364 -0.9033571 -1.0465583
000080 a4 e8 82 bf 16 fe 64 3f be 86 83 bf 1a 5c 7b bf
       -1.0227246 0.89450204 -1.0275495 -0.9818741
000090 ac b3 6a bf b1 4a 75 3f 7c 78 75 bf 14 96 79 bf
       -0.9168041 0.95817095 -0.9588697 -0.97494626
0000a0 c8 77 67 3f ee e1 8e bf d0 7b 8f 3f d3 7d 82 bf
       0.90417147 -1.1162698 1.120966 -1.0194649
0000b0 17 dc 80 3f 9e 62 8c bf f3 c6 89 bf ba 35 89 bf
       1.0067166 -1.0967596 -1.076384 -1.0719521
0000c0 8e 78 67 bf 0d ee 8c bf 24 73 66 3f 90 f0 5d 3f
       -0.90418327 -1.1010147 0.9001944 0.86695194
0000d0 cf 3b 6c 3f f7 b7 61 bf 2e 8d 73 3f bc 01 8f bf
       0.9227876 -0.88171333 0.951373 -1.1172404
0000e0 d0 43 62 3f 4e 04 8d 3f 80 f6 89 bf f5 bf 81 3f
       0.88384724 1.1016939 -1.0778351 1.0136706
0000f0 91 d9 8d 3f 64 1a 84 3f 1c fd 64 3f 8a 51 77 bf
       1.1082021 1.0320554 0.89448714 -0.96608794
000100 96 29 88 3f 0a d6 66 bf 16 11 83 bf ec f0 88 3f
       1.0637691 -0.9017035 -1.0239589 1.0698524
000110 87 4d 8d 3f 46 03 6a bf 4a bd 6f bf 06 b1 78 3f
       1.1039284 -0.91411245 -0.9364821 0.97145116
000120 46 11 7d bf 92 d6 8d bf 30 bb 8c bf 32 d4 7b bf
       -0.9885448 -1.1081107 -1.0994625 -0.9837066
000130 1e b8 85 bf 8d 51 86 3f 26 69 7f 3f 38 ec 62 bf
       -1.0446813 1.0493637 0.9976982 -0.8864169
000140 94 1d 8e bf 96 7d 83 3f 86 2d 6c 3f 02 63 89 3f
       -1.1102777 1.0272701 0.92256963 1.073334
000150 5c 03 69 bf df 6f 81 bf 08 d1 8c bf 0e 50 83 bf
       -0.9102075 -1.0112265 -1.1001291 -1.0258806
000160 4d 0e 65 bf 0d 99 63 3f 05 95 6f 3f 09 15 72 bf
       -0.89474946 0.8890541 0.9358676 -0.9456335
000170 31 4c 67 3f b8 b6 7e 3f 39 34 64 3f d1 06 80 3f
       0.90350634 0.99497557 0.89142185 1.000208
000180 1f 91 6d 3f 10 cb 6f bf 3a aa 61 3f c2 db 87 3f
       0.9279956 -0.93669224 0.8815037 1.061394
000190 6c 68 65 3f 63 e8 8e bf 7f 2c 73 3f fb af 7f 3f
       0.8961246 -1.1164669 0.9498977 0.998779
0001a0 8c 4e 7b bf dd eb 8b 3f 27 de 8b bf b6 88 8b 3f
       -0.9816673 1.0931355 -1.092717 1.0901096
0001b0 2e 9d 62 bf 5b 76 73 3f fd c0 7d 3f da 7b 86 3f
       -0.8852109 0.9510247 0.991226 1.0506546
0001c0 86 4e 71 3f c6 15 87 3f bc 7e 8e bf e9 77 76 bf
       0.9426044 1.055352 -1.1132426 -0.9627672
0001d0 1a 4f 84 bf 2f b5 75 3f dc 89 6a bf 1b cd 83 3f
       -1.033664 0.9597959 -0.91616607 1.0296968
0001e0 91 6d 66 bf 97 2e 6b bf e1 78 6b 3f 9c 5e 7f bf
       -0.90010935 -0.91867965 0.9198132 -0.9975374
0001f0 80 5b 8e bf 8f 90 81 bf 07 cd 8b bf 6f 96 85 3f
       -1.1121674 -1.0122241 -1.0921944 1.0436534
000200 ff ba 89 3f 62 19 60 bf b6 00 8b bf 6d 24 6d 3f
       1.0760192 -0.8753873 -1.0859592 0.92633706
000210 5c 1d 8f 3f a7 f0 70 bf c0 9a 5f bf 80 17 8f 3f
       1.1180835 -0.94117206 -0.87345505 1.1179047
000220 96 e3 8e bf a8 0b 8b bf 02 56 78 bf 7d 26 70 bf
       -1.1163204 -1.0862932 -0.9700624 -0.9380873
000230 94 26 83 bf ed 99 8d 3f b8 0c 74 3f c5 0d 79 bf
       -1.0246148 1.10626 0.9533191 -0.97286636
000240 40 17 82 bf 32 a2 65 3f ee fd 79 3f e6 8a 75 3f
       -1.0163345 0.89700615 0.9765309 0.9591507
000250 71 c3 80 bf f4 f5 8b bf 18 f2 88 bf 06 de 63 bf
       -1.0059644 -1.0934434 -1.0698881 -0.89010656
000260 c3 73 86 bf 7b 3b 70 3f 91 cd 89 3f a3 a9 8c bf
       -1.0504078 0.9384076 1.0765859 -1.0989269
000270 78 d0 60 3f 7e 4b 81 3f 1a 66 77 3f da e6 89 3f
       0.878181 1.0101163 0.9664017 1.0773575
000280 d6 0a 80 3f 50 e4 61 bf 67 ec 68 3f f1 91 62 3f
       1.0003307 -0.88239 0.9098572 0.8850394
000290 a8 6d 71 3f 78 cc 82 bf e2 8a 79 3f 3b 35 71 3f
       0.9430795 -1.0218649 0.97477543 0.9422185
0002a0 f8 35 79 bf ea e1 88 3f c1 74 87 bf bb d3 8e 3f
       -0.97347975 1.0693944 -1.0582505 1.1158365
0002b0 cd 25 84 bf 0e 90 70 3f 9c fc 87 3f 5f 03 65 3f
       -1.0324036 0.9396981 1.0623965 0.8945827
0002c0 3c 96 8f 3f ac a7 85 3f c6 7a 68 bf 9d f0 86 bf
       1.1217723 1.0441794 -0.9081234 -1.0542179
0002d0 81 f1 8d bf 20 48 84 3f fc 33 77 bf 75 ec 8e 3f
       -1.1089326 1.0334511 -0.96563697 1.1165911
0002e0 2c f8 76 bf 88 d1 84 bf 02 47 70 3f 6e 93 78 bf
       -0.9647243 -1.0376444 0.9385835 -0.9709996
0002f0 8c 51 89 bf f9 80 81 bf 94 73 81 bf 03 5c 77 3f
       -1.0728011 -1.0117484 -1.0113397 0.96624774
000300 96 e1 77 bf a0 6f 8d 3f 23 51 8a 3f 9b 49 66 bf
       -0.9682859 1.104969 1.0806011 -0.89956063
000310 36 38 85 bf a6 97 6d 3f 37 b0 5c 3f 1d 10 69 bf
       -1.0407779 0.9280952 0.8620638 -0.9104021
000320 2b 9e 8c 3f ab 81 8c 3f 9a 92 6c 3f 51 8f 88 3f
       1.0985769 1.0977072 0.92411196 1.0668737
000330 78 99 4c bf b1 9c 7f bf 8b 98 85 bf a8 b4 65 3f
       -0.79921675 -0.9984847 -1.0437177 0.89728785
000340 9f 73 84 3f b5 b6 77 3f b6 99 84 bf fd 14 61 3f
       1.0347785 0.96763164 -1.0359409 0.8792265
000350 1a c7 8c 3f cf c1 81 3f b8 74 74 3f 1a 3d 8e 3f
       1.0998261 1.0137271 0.954906 1.1112397
000360 94 a6 64 3f 8b 86 73 bf 24 4a 6b 3f 46 45 4f 3f
       0.8931668 -0.9512717 0.91910005 0.8096508
000370 78 23 55 bf 2e 26 88 bf 28 93 6f bf f0 e0 76 bf
       -0.83257246 -1.0636652 -0.9358392 -0.9643698
000380 50 c8 65 3f 14 35 8b 3f 60 10 8d bf 48 43 87 bf
       0.8975878 1.0875573 -1.1020622 -1.0567408
000390 35 09 84 bf be 72 84 3f a2 df 7e bf dc 46 82 bf
       -1.031531 1.0347517 -0.99559987 -1.0177875
0003a0 26 9d 21 bf d6 ab 82 bf 4e a0 87 bf b6 24 55 3f
       -0.63130414 -1.020869 -1.0595796 0.8325914
0003b0 e1 26 60 3f ef b0 74 3f ec 35 6c bf 3a 1e 79 bf
       0.87559325 0.9558248 -0.9226978 -0.9731175
0003c0 66 11 85 bf 5e a7 6a bf 76 cb 63 3f 65 78 8c bf
       -1.0395935 -0.9166163 0.8898233 -1.0974241
0003d0 44 ba 68 bf 0a 25 73 bf 11 a0 87 3f 9a 41 5e bf
       -0.9090922 -0.9497839 1.0595723 -0.8681885
0003e0 64 df 6f bf 7f 5a 7c 3f 0b 2a 81 bf e6 3c 69 3f
       -0.9370024 0.98575586 -1.0090955 0.9110855
0003f0 02 e4 61 3f 30 a4 82 3f 30 83 79 3f 15 48 7c bf
       0.8823854 1.0206356 0.974658 -0.9854749

lstm.bias_ih_l0 f4 [256]
000000 5b 03 83 3f 9a 2c 88 bf 9a b7 62 bf 1e e3 79 3f
       1.0235399 -1.0638611 -0.88561404 0.9761218
000010 97 58 8e 3f 7f 07 82 bf e0 d9 6f 3f c0 89 8b bf
       1.1120785 -1.0158538 0.93691826 -1.0901413
000020 3c 11 82 bf 61 f1 7b bf 04 19 87 3f a4 67 69 bf
       -1.016151 -0.9841519 1.0554509 -0.9117377
000030 fe 84 7a bf ff 13 6c 3f 7f f1 8d bf c4 39 73 3f
       -0.9785918 0.9221801 -1.1089324 0.9501002
000040 e1 a8 64 3f 27 ed 71 3f 90 66 8e 3f 3e 77 64 3f
       0.8932019 0.9450249 1.112505 0.8924445
000050 96 e2 8f bf 7e 9e 8e 3f 62 30 68 bf b7 b8 8f 3f
       -1.1241024 1.1142118 -0.90698826 1.1228245
000060 4c 27 85 bf cf a9 80 bf eb cf 62 bf 2e b9 7e 3f
       -1.0402617 -1.0051821 -0.8859851 0.9950131
000070 bc 45 80 bf d2 54 63 bf 4a f1 8e bf db d0 60 bf
       -1.0021281 -0.888013 -1.1167386 -0.8781869
000080 9b 80 6e 3f ca cc 8e bf 24 ff 87 bf d3 ef 70 3f
       0.93164986 -1.1156247 -1.0624738 0.9411594
000090 1b 80 85 3f c5 96 8e 3f 47 48 68 bf 0f a7 6c bf
       1.042972 1.1139761 -0.90735286 -0.9244241
0000a0 ac 0a 61 3f 8c 54 73 bf 16 a0 86 bf e0 9e 8c bf
       0.8790691 -0.95050883 -1.0517604 -1.0985985
0000b0 14 1f 80 bf 64 9b 64 bf a2 9a 82 3f 00 a8 69 3f
       -1.0009484 -0.8929961 1.020344 0.9127197
0000c0 f6 24 7e 3f 50 89 74 3f e1 9e 7a bf db 96 88 bf
       0.9927515 0.9552202 -0.9789868 -1.0671037
0000d0 ac c6 82 3f b2 fd 78 3f 17 c1 84 bf 0a 26 84 3f
       1.021688 0.9726211 -1.0371426 1.0324109
0000e0 48 5d 63 3f a1 af 66 bf 2b 87 85 bf 98 b0 81 3f
       0.8881421 -0.9011174 -1.0431875 1.0132017
0000f0 7a 4e 63 bf e2 b3 72 3f 46 13 85 bf b4 24 87 3f
       -0.8879162 0.9480573 -1.0396507 1.0558076
000100 98 10 87 3f e6 83 79 bf 16 e2 78 bf a9 4c 83 3f
       1.0551939 -0.97466886 -0.9721998 1.025777
000110 6b f8 8d 3f 8d 08 8b bf 9e ec 84 3f cc 49 85 bf
       1.1091436 -1.0861984 1.038471 -1.0413146
000120 2c 63 86 bf 9a d0 8c bf fe 36 70 3f 48 77 6f bf
       -1.0499015 -1.100116 0.9383391 -0.93541384
000130 8e b7 66 bf 6e 9f 6a 3f 9d f8 87 bf b1 e5 82 3f
       -0.9012383 0.9164952 -1.0622746 1.0226346
000140 12 ad 8d 3f d5 e9 88 3f 29 92 64 3f 18 8e 7c 3f
       1.1068442 1.069636 0.8928552 0.9865432
000150 2d f9 89 bf ec 97 8e 3f 72 a7 82 bf 99 1e 8e 3f
       -1.0779167 1.1140113 -1.020735 1.1103088
000160 15 c3 61 bf 56 0a 6c bf cb 46 6e bf ac ae 80 3f
       -0.88188297 -0.9220327 -0.9307677 1.0053306
000170 8d 3f 82 bf b4 72 81 bf 19 56 87 bf 58 0f 70 bf
       -1.0175644 -1.011313 -1.057315 -0.9377341
000180 c4 f3 8a 3f 1e c5 80 bf 8d 66 71 bf 69 af 79 3f
       1.0855641 -1.0060155 -0.94297105 0.9753328
000190 66 d8 6a 3f 9b ea 7e 3f c8 09 8b bf 06 19 67 bf
       0.9173645 0.9957673 -1.086236 -0.9027256
0001a0 31 21 68 3f ac 97 89 bf 97 85 61 bf aa b7 8f bf
       0.90675646 -1.0749412 -0.88094467 -1.1227925
0001b0 e3 55 6e bf 12 b3 86 bf 46 2a 6d 3f fe 7e 72 3f
       -0.930998 -1.0523398 0.9264263 0.94725025
0001c0 76 9d 68 3f 24 b7 78 3f 6c fe 69 bf a1 e2 80 bf
       0.90865266 0.9715445 -0.9140384 -1.0069162
0001d0 8a 75 7d 3f 11 16 6b 3f a0 96 67 bf 1a 58 6d 3f
       0.99007475 0.91830546 -0.9046421 0.9271256
0001e0 c5 93 8f 3f 4b 8c 6e bf dc 82 88 bf 06 f4 68 3f
       1.1216971 -0.9318282 -1.0664935 0.9099735
0001f0 c0 86 75 bf 95 24 82 3f a9 9f 8b bf f4 92 78 3f
       -0.9590874 1.0167414 -1.09081 0.9709923
000200 76 65 72 bf 18 13 83 bf 72 82 61 bf 42 9a 80 bf
       -0.9468607 -1.0240202 -0.8808967 -1.0047076
000210 d6 59 8e bf ed 6e 64 bf 1c 4b 7e 3f 3e 7a 87 3f
       -1.1121166 -0.8923176 0.9933336 1.058418
000220 11 2f 63 bf 7e e4 79 bf 91 53 81 3f ce 2a 64 bf
       -0.8874369 -0.97614276 1.0103627 -0.89127815
000230 ed 67 80 bf b4 1d 81 bf c0 59 64 3f f6 f7 8d 3f
       -1.0031716 -1.008719 0.8919945 1.1091297
000240 e4 74 86 3f b3 0c 88 bf e3 d3 88 bf 77 13 82 bf
       1.0504422 -1.0628875 -1.0689663 -1.016219
000250 56 a1 6b bf ca 13 8a 3f 58 e3 86 bf 50 10 8d 3f
       -0.92043054 1.0787289 -1.053813 1.1020603
000260 f4 68 7d bf 48 47 68 3f c0 70 7a 3f 1c 97 87 3f
       -0.9898827 0.90733767 0.9782829 1.059299
000270 10 df 84 3f 4a d4 6b 3f e4 e6 74 3f f5 1d 7f 3f
       1.0380573 0.921208 0.9566481 0.99655086
000280 5a f7 8c bf 86 84 6f bf e6 3d 72 3f 59 83 8c bf
       -1.1012986 -0.9356159 0.946257 -1.0977584
000290 80 de 8c bf 9d c1 84 3f 2b c7 79 3f bd 9f 81 3f
       -1.1005402 1.0371586 0.9756953 1.0126873
0002a0 d8 87 70 3f d9 44 88 3f c2 72 7f bf 0b 69 80 3f
       0.9395728 1.0646011 -0.9978448 1.0032057
0002b0 98 a8 83 bf d8 e8 7d 3f e9 36 83 bf da f9 89 bf
       -1.0285826 0.99183416 -1.0251132 -1.0779374
0002c0 08 c3 74 bf 05 ea 89 bf 19 d8 68 bf 95 f9 86 bf
       -0.95610094 -1.0774542 -0.9095474 -1.0544916
0002d0 9a 79 7d 3f 96 b7 8a bf 50 92 84 bf 66 34 73 bf
       0.99013674 -1.0837276 -1.0357151 -0.9500183
0002e0 b6 32 8c 3f fa c9 7f bf 42 47 6d 3f 40 ed 89 3f
       1.0952976 -0.99917567 0.92686856 1.0775528
0002f0 96 bb 67 bf 36 04 81 3f d3 43 6a bf 0d 0b 8e bf
       -0.9052061 1.007941 -0.9150974 -1.1097122
000300 f9 d9 81 3f ca 75 86 bf 5b 21 80 bf 8a 1a 87 3f
       1.0144645 -1.0504696 -1.0010179 1.0554974
000310 6b 48 8f 3f df 64 6c bf 14 15 75 3f 6c d0 83 bf
       1.1193975 -0.9234142 0.9573529 -1.029798
000320 47 e8 81 bf 5a 4f 7e bf 1c 7f 6a 3f dd 7b 8a bf
       -1.014901 -0.9933983 0.91600204 -1.081905
000330 b9 56 8e bf 1d 49 89 3f 70 db 68 bf 64 31 6c 3f
       -1.1120216 1.0725437 -0.90959835 0.92262864
000340 3e 05 80 3f 85 3d 86 3f b8 ee 6d 3f db 84 63 3f
       1.00016 1.0487524 0.9294238 0.88874596
000350 28 3f 6a bf 11 42 81 3f f3 6c 8d bf 60 a3 83 3f
       -0.9150262 1.0098287 -1.1048874 1.0284233
000360 1c df 8a bf ab 77 65 bf 06 fc 82 bf 0a 5c 87 3f
       -1.0849338 -0.89635724 -1.0233161 1.0574963
000370 b0 cd 89 bf 4b d3 71 bf 81 c1 83 bf 87 ca 76 bf
       -1.0765896 -0.9446303 -1.0293428 -0.9640278
000380 70 f0 72 3f 94 87 8f bf 70 a3 83 bf d0 c3 63 3f
       0.9489813 -1.121325 -1.0284252 0.8897066
000390 ed 63 86 3f f0 81 6c 3f fd 13 71 bf 33 69 82 bf
       1.0499245 0.9238577 -0.94171125 -1.0188354
0003a0 50 73 82 3f ff 96 80 bf 8d e6 85 bf 20 b4 76 bf
       1.019144 -1.004608 -1.0460984 -0.963686
0003b0 39 b3 72 bf 1f 99 70 bf 9c bd 86 3f d3 44 8a 3f
       -0.9480472 -0.93983644 1.0526614 1.0802253
0003c0 dc f5 7a 3f 36 44 8a 3f cc 9f 8c bf 6e 8d 65 bf
       0.980314 1.0802066 -1.0986266 -0.8966893
0003d0 d4 40 82 3f 41 6b 7e 3f bf 5b 7d bf 36 73 8c 3f
       1.0176034 0.99382406 -0.9896812 1.097266
0003e0 2f ba 89 3f d6 ee 7b bf 3c 60 8c bf 8a d5 67 3f
       1.0759944 -0.9841131 -1.0966868 0.9056021
0003f0 ce b5 84 bf 0d 2d 65 3f 4d d0 80 bf 26 6f 82 3f
       -1.0367982 0.8952187 -1.0063568 1.019017

lstm.bias_hh_l0 f4 [256]
000000 1d c7 73 3f a9 3b 8a bf a1 3f 69 bf 45 c1 85 3f
       0.952257 -1.0799457 -0.91112715 1.0449606
000010 63 68 8c 3f 58 21 60 bf b9 c9 82 3f d2 6e 8e bf
       1.0969356 -0.8755088 1.0217811 -1.112757
000020 4a bc 83 bf 28 9e 8f bf e7 eb 83 3f b3 7e 80 bf
       -1.0291836 -1.122014 1.0306367 -1.0038666
000030 de 1e 8a bf a5 09 7c 3f 1a 49 7b bf 1c 94 7f 3f
       -1.079067 0.98452216 -0.9815842 0.9983537
000040 bd d6 68 3f df 0e 89 3f 14 af 6a 3f 7e c4 6b 3f
       0.90952665 1.0707663 0.916734 0.920967
000050 d6 b7 66 bf d9 a3 65 3f f0 b5 8b bf ef ac 86 3f
       -0.9012426 0.89703137 -1.0914898 1.0521525
000060 eb 06 85 bf 41 5e 8c bf 0a 8f 7b bf e7 36 79 3f
       -1.0392736 -1.0966264 -0.98265135 0.973494
000070 00 8a 7f bf ea 48 81 bf 1c 93 87 bf f1 21 7d bf
       -0.99819946 -1.0100377 -1.0591769 -0.98879915
000080 7a a6 87 3f fe f9 74 bf 08 e0 7a bf 48 88 60 3f
       1.059768 -0.9569396 -0.97998095 0.8770795
000090 dd bb 61 3f 52 f4 86 3f dd d8 6c bf fa b4 67 bf
       0.8817728 1.0543311 -0.9251841 -0.90510523
0000a0 51 d7 82 3f a9 22 75 bf 17 34 62 bf 96 cf 64 bf
       1.0221959 -0.9575601 -0.8836073 -0.8937925
0000b0 38 f3 7d bf bf c0 82 bf f5 bb 83 3f 5d 77 63 3f
       -0.9919925 -1.0215071 1.0291735 0.8885401
0000c0 04 f0 82 3f 96 04 8b 3f f2 47 85 bf bc cf 82 bf
       1.0229497 1.0860775 -1.0412581 -1.0219646
0000d0 8c 8c 88 3f a6 08 8b 3f 5f e1 79 bf 42 50 71 3f
       1.0667892 1.0862014 -0.97609514 0.9426309
0000e0 2f 10 74 3f 61 5e 8c bf 41 c5 8e bf c6 03 85 3f
       0.95337194 -1.0966302 -1.1153947 1.0391777
0000f0 ac ee 87 bf 53 fc 76 3f 2d 31 8f bf 75 d4 8b 3f
       -1.0619712 0.96478766 -1.1186882 1.0924212
000100 57 77 75 3f f8 4e 7e bf 8c f4 78 bf eb 64 68 3f
       0.95885223 -0.99339247 -0.9724815 0.9077899
000110 47 cc 7c 3f e3 33 6e bf 41 8e 84 3f ab 2e 6f bf
       0.987492 -0.9304792 1.0355912 -0.93430585
000120 4c ce 85 bf 6f 66 82 bf e0 2c 8a 3f 8e 7c 81 bf
       -1.0453582 -1.018751 1.0794945 -1.0116136
000130 1f 24 7b bf fb a6 6e 3f d1 8e 80 bf d1 80 86 3f
       -0.9810199 0.9322354 -1.0043584 1.0508062
000140 f6 cd 7c 3f f0 1e 64 3f 7e 3b 79 3f 4c 59 74 3f
       0.9875177 0.89109707 0.973564 0.95448756
000150 ca cb 73 bf 51 2c 84 3f 6e a5 7f bf 26 a3 77 3f
       -0.9523283 1.0326024 -0.998618 0.9673332
000160 c2 0a 87 bf 9e 33 84 bf 76 f5 75 bf d6 2f 78 3f
       -1.0550158 -1.0328252 -0.9607767 0.9694799
000170 b4 e5 86 bf ea 86 74 bf d5 b0 81 bf 91 b8 68 bf
       -1.053885 -0.9551836 -1.013209 -0.90906626
000180 52 dc 82 3f 47 a8 85 bf 52 f6 6d bf b6 8c 63 3f
       1.0223486 -1.0441979 -0.9295398 0.8888658
000190 df 8f 88 3f 32 0e 75 3f bc 5e 83 bf 08 cc 84 bf
       1.0668906 0.95724785 -1.0263286 -1.0374765
0001a0 a7 3c 76 3f cd f8 8f bf 5b 0d 61 bf cd 21 89 bf
       0.961863 -1.1247803 -0.87911004 -1.071344
0001b0 1e 7c 8f bf 17 54 76 bf 46 c5 88 3f 23 06 75 3f
       -1.1209753 -0.9622206 1.0685203 0.9571249
0001c0 0b ef 62 3f cc cb 66 3f c3 9f 8b bf d9 7f 80 bf
       0.88646 0.9015472 -1.090813 -1.0039016
0001d0 c8 3c 79 3f ae 37 85 3f 8f 98 8c bf 46 df 70 3f
       0.9735837 1.0407617 -1.0984057 0.9409069
0001e0 cc 55 88 3f db a9 6a bf 6f 1b 63 bf fe 0e 89 3f
       1.0651183 -0.9166543 -0.88713735 1.07077
0001f0 11 be 78 bf 3b 5c 68 3f 1e ea 69 bf c0 b3 8b 3f
       -0.9716502 0.9076573 -0.9137286 1.091423
000200 88 0e 8d bf 49 78 6d bf 78 04 80 bf d6 c1 86 bf
       -1.102006 -0.92761666 -1.0001364 -1.0527904
000210 5b e7 85 bf 3d 10 83 bf ab 19 7a 3f 49 45 76 3f
       -1.0461229 -1.023933 0.97695416 0.9619947
000220 94 34 7d bf 1e 4c 6e bf 12 c1 7a 3f e0 38 75 bf
       -0.9890835 -0.93084896 0.9795085 -0.9578991
000230 eb 2c 7a bf 13 c1 84 bf 03 d6 78 3f 68 60 83 3f
       -0.9772479 -1.0371422 0.97201556 1.0263796
000240 b4 c2 8c 3f 89 e0 76 bf 27 09 79 bf 16 9b 61 bf
       1.0996919 -0.96436363 -0.9727959 -0.8812727
000250 10 16 69 bf 5e 55 73 3f a2 cf 7b bf 0b 60 82 3f
       -0.9104929 0.95052135 -0.983637 1.018556
000260 77 71 73 bf 0c 3a 68 3f 61 d8 8b 3f f8 f6 77 3f
       -0.9509501 0.9071357 1.0925409 0.9686122
000270 da 52 7e 3f f9 88 71 3f b7 37 64 3f e4 7a 65 3f
       0.9934517 0.9434963 0.89147514 0.8964064
000280 7d 25 68 bf 96 42 66 bf 5e 8b 76 3f 27 a3 89 bf
       -0.906822 -0.8994535 0.9630641 -1.0752915
000290 6f 8b 89 bf be 6f 80 3f e1 c5 75 3f cc 81 69 3f
       -1.0745677 1.0034101 0.96005064 0.9121368
0002a0 8f 90 85 3f 95 01 6f 3f 6e 1c 8d bf 5c 55 8c 3f
       1.0434741 0.9336179 -1.1024301 1.096355
0002b0 10 5d 80 bf 5d ab 80 3f 87 0c 8e bf 8b 7c 87 bf
       -1.00284 1.0052296 -1.1097573 -1.0584882
0002c0 eb 4c 8a bf 1d 7b 76 bf b2 54 63 bf c9 69 89 bf
       -1.0804724 -0.96281606 -0.8880111 -1.0735408
0002d0 08 28 82 3f a8 ae 72 bf f2 3e 65 bf cf 61 8e bf
       1.0168467 -0.94797754 -0.8954917 -1.1123599
0002e0 78 4b 63 3f 76 1e 60 bf 8b d4 82 3f 99 0d 89 3f
       0.8878703 -0.8754648 1.0221113 1.0707275
0002f0 02 e7 8a bf 4c 8b 85 3f cf fe 7d bf dc bd 85 bf
       -1.0851748 1.0433135 -0.9921693 -1.0448565
000300 6c 25 8c 3f 8e 46 83 bf 3f 2f 89 bf 4d f7 85 3f
       1.094892 -1.0255907 -1.0717543 1.0466095
000310 64 e4 85 3f 6c e9 89 bf 6b da 86 3f b0 6f 85 bf
       1.0460324 -1.077436 1.0535406 -1.0424709
000320 d2 c8 7f bf 9a 37 8b bf e9 2c 84 3f 46 e1 6f bf
       -0.999158 -1.0876343 1.0326205 -0.93703115
000330 b9 3f 83 bf 57 a3 6e 3f df 18 86 bf fd ec 61 3f
       -1.0253822 0.93217987 -1.047634 0.8825224
000340 a0 eb 74 3f 69 e8 69 3f 1e f6 8f 3f 3d e0 88 3f
       0.95672035 0.91370255 1.1246984 1.0693432
000350 49 37 7e bf 3e d1 69 3f fe c4 61 bf b7 57 89 3f
       -0.9930311 0.91334903 -0.8819121 1.0729893
000360 2c b1 8c bf a3 69 87 bf 47 ae 8b bf 90 eb 62 3f
       -1.0991569 -1.0579113 -1.091256 0.8864069
000370 d6 87 82 bf ff 8b 7c bf cb 94 7d bf 18 d7 66 bf
       -1.0197704 -0.9865112 -0.99055165 -0.90171957
000380 cc 5a 85 3f df a2 8a bf 47 e1 8b bf 84 62 62 3f
       1.0418334 -1.0830954 -1.0928124 0.8843157
000390 23 95 6f 3f 92 ef 60 3f 71 20 8c bf 32 c2 75 bf
       0.9358694 0.87865555 -1.09474 -0.95999444
0003a0 3e 24 88 3f 84 ca 8c bf b3 48 8e bf 0d ef 80 bf
       1.063606 -1.0999303 -1.1115936 -1.0072953
0003b0 f2 95 65 bf 0c db 88 bf e4 e0 68 3f 20 7d 8b 3f
       -0.89681923 -1.0691848 0.90968156 1.089756
0003c0 a2 94 62 3f 10 7f 84 3f 84 91 7e bf ea 81 81 bf
       0.88508046 1.0351276 -0.9944079 -1.0117772
0003d0 26 89 8d 3f 2c bb 69 3f de fe 80 bf f9 66 67 3f
       1.1057479 0.91301227 -1.0077779 0.903915
0003e0 a6 9d 8d 3f bc 85 8f bf 02 fd 87 bf 54 0d 77 3f
       1.1063735 -1.1212687 -1.0624087 0.9650471
0003f0 f4 ed 75 bf 8b 95 83 3f 0c 53 8c bf 80 a0 6e 3f
       -0.9606621 1.0280012 -1.0962844 0.93213654

lstm.weight_ih_l1 f4 [256, 64]
000000 06 e4 8e 3f cc 6f 72 bf b4 02 89 bf ab 65 75 3f
       1.1163337 -0.9470184 -1.070395 0.9585826
000010 29 31 83 3f f8 29 79 bf 9a 60 67 bf 1e 0e 82 3f
       1.0249377 -0.97329664 -0.9038178 1.0160558
000020 ea 43 8d bf 05 86 74 bf e4 08 8a bf 48 ce 84 bf
       -1.1036351 -0.95517 -1.0783963 -1.0375452
000030 fa 06 8f bf 3b d0 85 3f 00 f5 61 3f d7 69 88 bf
       -1.1174004 1.0454172 0.88264465 -1.06573
000040 2b 0c 87 bf de d0 74 3f 5f 96 80 3f bc d4 7a 3f
       -1.0550588 0.95631206 1.004589 0.97980857
000050 62 9c 8f bf 2e 5f 83 bf c6 7e 64 bf 2d 3d 87 bf
       -1.1219599 -1.0263422 -0.8925594 -1.0565544
000060 53 df 80 bf 4c 5e 69 3f 24 32 86 3f 12 e2 8e bf
       -1.0068153 0.9115951 1.0484052 -1.1162741
000070 47 14 7f 3f 18 de 86 3f a6 4b 70 3f 97 ef 88 3f
       0.99640316 1.0536528 0.9386543 1.0698117
000080 8c ab 81 3f ee a5 7f bf f7 a2 80 3f 6e e4 73 3f
       1.0130477 -0.99862564 1.0049733 0.9527043
000090 0c ee 78 3f 80 d3 60 bf 59 5e 85 3f 05 53 8d 3f
       0.9723823 -0.87822723 1.0419418 1.104096
0000a0 25 63 6a bf 20 14 89 3f aa 35 6d bf 37 94 87 3f
       -0.9155753 1.0709267 -0.9266001 1.0592107
0000b0 cf c2 75 bf 1e d9 6e 3f 80 bb 80 3f a6 4b 67 3f
       -0.9600038 0.93300045 1.005722 0.90349805
0000c0 10 ff 60 3f 4d 50 8e 3f 61 80 84 bf 1e e2 8e bf
       0.87889194 1.1118256 -1.0351678 -1.1162755
0000d0 31 79 88 bf 5a d8 85 3f 6c 2c 8b bf 49 86 88 3f
       -1.0661985 1.045665 -1.0872931 1.066598
0000e0 34 3d 85 bf 4e 31 8a bf e7 27 8e 3f f9 6e 74 bf
       -1.0409303 -1.0796297 1.1105927 -0.9548183
0000f0 ba 85 8f bf 47 ec 89 bf cd 27 73 bf 19 24 7c 3f
       -1.1212685 -1.0775231 -0.94982606 0.9849258
000100 13 ee 84 bf 21 e7 8e 3f 16 7c 80 3f 30 2c 7a bf
       -1.0385154 1.1164285 1.0037868 -0.97723675
000110 17 17 81 bf a4 24 67 3f e8 49 88 3f c6 73 68 bf
       -1.0085171 0.90290284 1.0647554 -0.90801656
000120 37 f7 83 3f 3b ad 6e 3f fa 58 88 3f 2f b9 82 3f
       1.0309819 0.9323308 1.0652153 1.0212764
000130 b6 9e 78 3f ac 40 83 bf fb aa 83 bf 82 0f 61 3f
       0.97117174 -1.0254111 -1.0286554 0.8791429
000140 18 e4 8f 3f 7c 42 6b bf a2 d9 65 bf ba 7a 8f bf
       1.1241484 -0.9189832 -0.89785206 -1.1209328
000150 52 34 87 3f cc 49 88 3f 5c 47 7a 3f ed 45 8e 3f
       1.0562842 1.0647521 0.97765136 1.111509
000160 a7 3b 89 3f 7e 1c 8c bf 37 ca 8b bf 93 a6 65 3f
       1.072133 -1.0946195 -1.0921086 0.897073
000170 f0 31 61 bf e0 2a 8d bf 04 9a 72 bf 64 42 8f bf
       -0.87966824 -1.102871 -0.9476626 -1.1192136
000180 8c 52 83 bf 5e bd 81 3f 85 dd 85 bf 2b 1a 84 bf
       -1.0259566 1.0135915 -1.0458227 -1.0320486
000190 38 79 89 bf ac f1 6c 3f ae 34 7e bf 80 65 8c bf
       -1.0740118 0.9255626 -0.9929913 -1.0968475
0001a0 aa ad 82 3f 2c bc 72 bf b4 2c 89 3f ec cc 63 bf
       1.0209248 -0.9481838 1.0716767 -0.8898456
0001b0 9b 03 61 3f 2d 41 70 bf b9 de 84 bf 50 5e 70 bf
       0.87896127 -0.9384945 -1.038047 -0.9389391
0001c0 81 f8 87 bf 94 b0 82 bf 2e 09 69 3f 3a be 8e 3f
       -1.0622712 -1.0210137 0.9102963 1.1151803
0001d0 19 51 69 3f 37 20 8d bf 56 37 7b 3f 7f 81 8e bf
       0.9113937 -1.1025456 0.9813131 -1.1133269
0001e0 bf 86 84 3f a0 15 87 3f 11 1d 8f bf cf 1d 71 3f
       1.0353621 1.0553474 -1.1180745 0.9418611
0001f0 0e 78 81 3f dd f6 63 3f 2c d0 77 3f 2d 86 65 bf
       1.0114763 0.8904856 0.9680202 -0.8965786
000200 0f 01 80 bf bb e3 72 3f 89 b5 6c 3f 66 f2 8c bf
       -1.0000323 0.9487874 0.924645 -1.1011474
000210 16 87 8b bf a9 af 88 3f 56 2e 8e 3f 7e 63 8b bf
       -1.09006 1.0678607 1.1107891 -1.0889738
000220 9f ae 6c 3f 0e fe 82 3f 7e ed 70 3f 4c 39 6b 3f
       0.9245395 1.0233781 0.94112384 0.91884303
000230 55 c9 8f 3f 4d 3f 81 bf da 80 84 bf a8 9b 71 3f
       1.1233317 -1.0097443 -1.0351822 0.9437814
000240 a3 42 88 3f c3 73 84 bf 80 2a 8e bf 0a d1 87 bf
       1.0645336 -1.0347828 -1.110672 -1.0610669
000250 38 8b 82 3f 0f 4e 68 3f 92 3f 62 3f 98 fe 72 3f
       1.0198736 0.9074411 0.8837825 0.9491973
000260 fc 75 6d 3f 1a ae 69 bf 68 24 8a bf 2a d6 8f 3f
       0.92758155 -0.9128128 -1.079236 1.1237233
000270 6d 0f 72 bf bf f2 8d bf f7 60 89 bf 32 a8 83 bf
       -0.9455479 -1.1089705 -1.0732716 -1.0285704
000280 92 a6 80 bf 38 af 7c 3f 8b b3 65 bf ee f1 71 bf
       -1.0050833 0.9870486 -0.89727086 -0.9450978
000290 56 07 71 bf dd 2d 75 3f 8d 58 84 bf 76 2d 72 bf
       -0.9415182 0.95773107 -1.0339524 -0.9460062
0002a0 23 c0 87 3f 5c 0d 7c bf dc 51 80 3f 60 a8 8d bf
       1.060551 -0.98457885 1.0024981 -1.1067009
0002b0 1d 2c 8c 3f 14 b3 8d bf 04 9c 6c bf 9e 58 8a bf
       1.0950962 -1.1070275 -0.9242556 -1.0808294
0002c0 ed 30 8b bf 96 9c 69 bf e0 c8 8b 3f 6f 17 60 3f
       -1.0874306 -0.91254556 1.0920677 0.87535757
0002d0 86 2e 87 3f 9e d1 85 bf 58 8b 6a 3f 2c b0 7d bf
       1.0561073 -1.0454595 0.9161887 -0.9909694
0002e0 41 26 77 3f 52 37 62 3f 38 70 8d bf 45 c2 87 3f
       0.96542746 0.8836566 -1.1049871 1.0606161
0002f0 98 53 78 3f 08 26 83 3f c0 a5 7b 3f d6 be 6f bf
       0.97002554 1.0245981 0.9829979 -0.9365057
000300 af 0c 69 bf c7 9f 68 3f ae 95 8d 3f 0a 48 8e bf
       -0.9103498 0.908688 1.1061304 -1.1115735
000310 70 89 71 bf 79 b8 8d 3f ff a8 87 3f 11 f2 85 bf
       -0.9435034 1.1071922 1.0598449 -1.0464498
000320 49 22 80 3f 9a 92 65 3f 13 5e 65 3f aa a7 8a 3f
       1.0010463 0.8967682 0.8959667 1.0832417
000330 5f 7d 80 3f 8e b8 87 bf f8 e4 8d bf a9 3b 8e 3f
       1.003826 -1.0603197 -1.1085501 1.1111957
000340 f5 90 8e 3f 41 50 8c bf 5c 27 86 bf e5 54 83 bf
       1.1137987 -1.0961992 -1.0480762 -1.0260283
000350 59 5d 80 3f 82 79 8e 3f 0e 02 7e 3f 46 40 63 3f
       1.0028487 1.1130831 0.99221885 0.8876995
000360 cf 5b 7c 3f ce 30 68 bf a3 f1 75 bf 4c 12 66 3f
       0.9857759 -0.9069947 -0.96071833 0.8987167
000370 dc 1b 8d bf 5a 3e 67 bf 0e 1f 69 bf df 68 83 bf
       -1.1024127 -0.90329516 -0.9106301 -1.0266379
000380 ea b5 7e bf a7 24 75 3f 6c 65 85 bf aa 89 8a bf
       -0.9949633 0.9575905 -1.0421576 -1.0823262
000390 b8 3f 82 bf 3b 51 84 3f de ef 8a bf dd ff 80 bf
       -1.0175695 1.033729 -1.0854452 -1.0078083
0003a0 40 5d 82 3f da 10 73 bf cf 4d 7e 3f 4d 29 64 bf
       1.0184708 -0.9494759 0.99337476 -0.8912552
0003b0 b6 ba 8b 3f cd 74 6c bf 5e e5 7f bf 83 54 7a bf
       1.0916355 -0.92365724 -0.9995936 -0.97785205
0003c0 26 b4 63 bf 0d 1d 62 bf 99 81 71 3f 3d 22 64 3f
       -0.8894676 -0.8832558 0.94338375 0.89114743
0003d0 8d c8 7f 3f 6c e4 8b bf a3 e5 87 3f 78 f9 85 bf
       0.9991539 -1.0929084 1.0616955 -1.0466757
0003e0 70 8a 70 3f 51 49 84 3f 6a a3 6d bf 99 07 62 3f
       0.9396124 1.0334874 -0.92827475 0.88292843
0003f0 a8 3e 6e 3f 97 f7 78 3f 0f 10 69 3f bb c2 7d bf
       0.93064356 0.9725279 0.9104013 -0.9912526

lstm.weight_hh_l1 f4 [256, 64]
000000 55 06 84 bf 27 aa 84 bf b8 d9 74 3f 20 d7 6b 3f
       -1.0314432 -1.0364426 0.9564471 0.9212513
000010 68 d5 82 3f 1f 66 64 bf 8d 3f 8b bf 71 62 8a 3f
       1.0221376 -0.89218324 -1.0878769 1.0811292
000020 08 45 61 bf ef bd 6e bf 83 5a 8a 3f 10 fb 72 bf
       -0.8799596 -0.93258566 1.0808872 -0.9491434
000030 41 4a 84 3f d4 6c 84 bf 10 f5 64 3f b2 0b 7c bf
       1.033516 -1.0345712 0.89436436 -0.98455346
000040 63 1d 60 bf 22 84 60 3f fd 72 82 3f c5 d2 82 3f
       -0.8754484 0.8770162 1.0191342 1.0220572
000050 b0 4d 65 bf 72 9c 6b 3f 5e 3f 67 3f de ee 69 bf
       -0.89571667 0.9203559 0.90331066 -0.9138011
000060 8c ce 70 bf 0e e5 8d bf 12 63 8e bf e9 71 8b 3f
       -0.94065166 -1.1085527 -1.1123984 1.0894138
000070 0e fe 75 bf 2f b9 79 3f 05 83 82 bf 5a 4a 87 3f
       -0.9609078 0.9754819 -1.0196234 1.0569565
000080 f8 e3 80 bf 41 10 76 bf 51 ed 8d bf 3a 32 65 3f
       -1.006957 -0.9611855 -1.1088048 0.89529765
000090 7b 2d 87 bf dc cd 67 bf ed ae 8d 3f cb 5f 84 bf
       -1.0560755 -0.9054849 1.1069008 -1.0341734
0000a0 72 f4 82 bf 54 35 7a bf 77 cd 8b bf fe 65 6c bf
       -1.0230849 -0.9773762 -1.0922078 -0.9234313
0000b0 53 8d 73 bf a8 48 8d bf 5f 63 86 bf 52 90 77 3f
       -0.9513752 -1.1037798 -1.0499076 0.9670459
0000c0 89 ed 8d 3f 39 20 89 bf 82 7d 69 bf 0e 9d 6e bf
       1.1088115 -1.0712959 -0.91207135 -0.93208396
0000d0 91 de 7e bf 6e f3 6d bf b5 fd 6e bf d7 75 8f 3f
       -0.9955836 -0.9294957 -0.93355876 1.1207837
0000e0 c8 b8 78 bf 3c 06 88 bf 3a 44 6d bf 9c 38 85 bf
       -0.97156954 -1.0626903 -0.9268223 -1.0407901
0000f0 b5 55 8f 3f 5b 50 66 3f ca 3f 62 3f 0d c4 7c bf
       1.1198031 0.8996636 0.88378584 -0.9873665
000100 be 94 80 3f cb 3a 8c 3f f0 9f 8a bf 66 64 7b bf
       1.0045393 1.0955442 -1.0830059 -0.9820007
000110 74 f4 63 bf 91 c2 65 3f 90 4e 70 3f 75 de 88 bf
       -0.8904488 0.8975001 0.93869877 -1.0692888
000120 99 d2 66 3f c8 53 72 3f 18 d1 6b bf 4a dc 85 3f
       0.90165097 0.9465909 -0.92115927 1.0457852
000130 b3 1f 82 bf 52 70 69 3f 42 76 84 bf ea 69 89 3f
       -1.0165924 0.9118701 -1.034859 1.0735447
000140 fa d0 60 3f 87 82 80 bf 44 67 63 bf f5 46 7c bf
       0.8781887 -1.0039834 -0.88829446 -0.9854577
000150 82 3d 64 3f 43 a9 8c bf a9 e3 62 bf c7 20 8e 3f
       0.89156353 -1.0989155 -0.8862863 1.1103753
000160 9e be 8f 3f b4 29 79 3f c7 9a 8d 3f 37 2f 80 bf
       1.1230047 0.9732926 1.1062859 -1.0014409
000170 29 34 8d 3f 9e df 86 bf 8b e7 8a 3f 3e 79 8f bf
       1.1031543 -1.0536993 1.0851911 -1.1208875
000180 0f de 60 3f e6 a2 82 3f 83 50 8a 3f a0 12 81 bf
       0.87838835 1.0205963 1.080582 -1.0083809
000190 ca 01 79 3f 3a 7b 88 3f d0 e2 7d bf f7 3c 65 3f
       0.97268355 1.0662606 -0.99174213 0.8954615
0001a0 f4 d3 7c 3f 1c bc 63 3f fb f2 81 3f 46 bc 8d 3f
       0.98760915 0.8895891 1.0152277 1.1073081
0001b0 15 b5 88 3f 7a ba 89 3f 41 ef 8d 3f 67 05 8b bf
       1.0680262 1.0760033 1.108864 -1.0861024
0001c0 96 e0 6d bf 52 ff 86 3f 2d da 81 3f c4 04 7e 3f
       -0.92920816 1.0546668 1.0144707 0.9922602
0001d0 1b 75 8f 3f 22 a6 69 3f 46 79 8c 3f b0 7d 8a bf
       1.1207613 0.91269124 1.097451 -1.0819607
0001e0 38 c6 74 3f bb b0 6f 3f 33 e1 72 3f 5b f2 7b 3f
       0.9561496 0.93629044 0.94874877 0.9841668
0001f0 91 84 68 bf df 45 71 bf 25 ac 8f bf 04 c8 89 3f
       -0.9082728 -0.9424724 -1.1224409 1.0764165
000200 55 d6 8b 3f 3e a5 69 3f 03 0a 62 bf 7a 86 62 bf
       1.0924784 0.91267765 -0.88296527 -0.88486445
000210 78 f6 60 bf c0 bb 68 3f f2 85 8f 3f dd 48 7a bf
       -0.8787608 0.90911484 1.1212752 -0.9776743
000220 87 24 8f 3f 0c bc 6b 3f c2 ad 75 bf 4c 36 84 3f
       1.1183022 0.9208381 -0.9596826 1.032907
000230 cf 76 82 bf 5d 8d 85 3f 72 e1 8a bf b4 33 7b 3f
       -1.0192508 1.0433766 -1.085005 0.9812577
000240 cd 72 61 3f e8 b2 60 bf 87 ab 69 bf 7e 86 66 bf
       0.880658 -0.8777299 -0.91277355 -0.9004897
000250 9b 4f 76 3f 1a 5e 84 bf 76 df 86 bf 72 9b 8d 3f
       0.9621522 -1.0341218 -1.0536945 1.1063063
000260 7f 7a 7c 3f 44 4f 8c 3f 6b 6d 7b 3f 86 0c 73 bf
       0.98624414 1.096169 0.98213834 -0.94940984
000270 89 65 8a 3f 9c 52 7e bf c0 c9 8c 3f 64 7d 73 bf
       1.0812236 -0.993448 1.0999069 -0.95113206
000280 39 5e 7f 3f 7c 72 76 3f 81 58 8e 3f 02 50 78 bf
       0.9975315 0.9626844 1.1120759 -0.9699708
000290 4f 59 81 3f ec 21 7e 3f bc 2d 6b bf 6a a5 74 3f
       1.010538 0.9927051 -0.9186666 0.955649
0002a0 d0 c7 77 3f 8c 89 8a 3f d2 80 76 3f e1 45 76 3f
       0.96789265 1.0823226 0.96290314 0.96200377
0002b0 ee 8d 89 3f 01 9e 60 3f a5 bd 88 3f 5e 44 7a bf
       1.0746439 0.87741095 1.0682875 -0.9776057
0002c0 7b d5 88 bf 1f 47 8d 3f aa 08 80 3f 87 68 8e 3f
       -1.0690149 1.103733 1.0002644 1.1125649
0002d0 c6 31 8d 3f 82 6f 8a 3f 38 9a 75 3f 70 98 8d bf
       1.1030815 1.081528 0.95938444 -1.1062145
0002e0 27 c3 87 3f 7d bc 6a 3f 42 37 70 3f 9f 79 89 3f
       1.0606431 0.9169386 0.93834317 1.0740241
0002f0 4f 98 82 bf 99 fc 88 bf be 27 85 bf e3 69 81 3f
       -1.0202731 -1.0702087 -1.0402753 1.0110439
000300 df 22 87 3f c3 77 88 3f 9b 36 8a bf 91 64 7d bf
       1.0557517 1.0661548 -1.0797914 -0.9898158
000310 9b 1a 78 bf b7 e0 89 3f b8 4b 7b 3f 8a b1 6a bf
       -0.96915597 1.0771703 0.9816241 -0.91677153
000320 7d 96 74 3f 79 36 8c 3f 74 fe 82 bf 18 14 89 3f
       0.95542127 1.0954124 -1.0233903 1.0709257
000330 3a 05 87 bf 1d 8d 8f 3f 67 67 6d bf 96 02 6e 3f
       -1.054847 1.1214939 -0.92735904 0.92972696
000340 b5 c4 87 3f 42 d8 81 bf 5a 4b 68 bf 8c 40 8c bf
       1.0606905 -1.0144122 -0.9073998 -1.0957198
000350 b6 5d 66 3f 1f ac 89 bf 7e 34 82 bf 7a 66 78 3f
       0.8998674 -1.0755652 -1.0172269 0.97031367
000360 cd 26 71 3f 24 e1 6a 3f 7f a8 8c 3f eb ba 83 bf
       0.9419983 0.9174979 1.0988921 -1.0291418
000370 3a b8 84 3f cd fd 81 bf 06 53 8d 3f 21 de 7d bf
       1.0368721 -1.0155579 1.1040962 -0.99167067
000380 2f 54 66 3f 84 01 86 3f 6a fc 6a 3f b4 33 6e bf
       0.89972204 1.0469213 0.91791403 -0.9304764
000390 45 06 8b 3f dc 45 6b 3f 20 64 77 bf 19 f0 72 3f
       1.0861288 0.9190347 -0.96637154 0.9489761
0003a0 a1 5c 8f 3f 10 97 62 3f 3e 95 6d 3f 50 13 88 3f
       1.1200143 0.88511753 0.9280585 1.0630894
0003b0 c5 15 81 3f 99 e8 8e 3f fa 16 64 3f 1a 88 8f bf
       1.0084769 1.1164733 0.8909756 -1.121341
0003c0 71 ea 6b bf f2 09 8c 3f dd 7f 7f 3f 9f ed 8b 3f
       -0.92154604 1.0940535 0.9980448 1.0931891
0003d0 32 c4 65 3f fb d3 63 3f 2c 1c 8d 3f 68 1b 80 bf
       0.89752495 0.8899533 1.1024222 -1.0008364
0003e0 80 6e 79 3f 58 aa 82 3f db f2 83 3f f1 20 88 3f
       0.97434235 1.0208235 1.0308489 1.0635053
0003f0 23 7e 6a bf 0c 54 68 bf 16 01 87 bf 90 f0 60 3f
       -0.9159872 -0.90753245 -1.0547206 0.8786707

lstm.bias_ih_l1 f4 [256]
000000 27 9e 8c bf 72 85 63 3f 4d c4 88 3f 72 8d 74 3f
       -1.0985764 0.88875496 1.0684906 0.9552833
000010 5c 94 88 bf 2e dd 8d bf bf ac 79 bf 84 96 86 bf
       -1.0670276 -1.1083124 -0.97529215 -1.0514684
000020 02 71 84 3f a3 f5 6b 3f 08 93 8b 3f db 66 84 bf
       1.0346987 0.92171687 1.0904245 -1.0343889
000030 44 97 66 bf 34 25 80 bf 50 0b 88 bf 23 c7 8c bf
       -0.90074563 -1.0011353 -1.0628452 -1.0998272
000040 14 c9 72 3f 84 b9 69 3f 94 87 70 bf 82 1c 70 bf
       0.9483807 0.912987 -0.93956876 -0.937935
000050 18 9f 76 3f 18 9b 83 3f e8 c3 65 bf 1f 3a 73 3f
       0.9633651 1.0281706 -0.89752054 0.9501056
000060 9b df 88 bf c8 10 81 3f 3e d4 89 3f 64 2c 8c bf
       -1.0693239 1.0083246 1.0767896 -1.0951047
000070 da ac 8e bf 76 db 8b bf 16 f1 71 3f 42 58 70 bf
       -1.11465 -1.0926349 0.9450849 -0.9388467
000080 f5 d4 80 3f 03 3f 84 bf 2a d3 8e bf 49 3a 8d bf
       1.0064989 -1.033173 -1.1158192 -1.1033412
000090 1f b2 89 3f bc 7b 87 3f 72 68 80 3f ba 7d 88 bf
       1.0757483 1.0584636 1.0031874 -1.0663369
0000a0 c9 0c 8f bf 1a 24 6b bf 2a 6a 8c bf 22 29 67 bf
       -1.1175777 -0.9185196 -1.0969899 -0.9029714
0000b0 e2 e7 84 bf 52 a9 8e bf d0 b6 85 3f 74 68 6c bf
       -1.0383265 -1.1145422 1.0446415 -0.9234688
0000c0 ac 95 84 3f c8 8c 8e 3f 22 80 70 bf ac b9 86 3f
       1.0358176 1.1136713 -0.93945515 1.0525413
0000d0 2f a6 7b bf 0e 3e 84 bf 6c b3 89 3f b0 57 73 3f
       -0.9830045 -1.0331438 1.075788 0.95055676
0000e0 49 0c 8b 3f 63 6a 6c 3f 3c 1f 6f bf ca 25 87 bf
       1.0863124 0.92349833 -0.93407035 -1.0558407
0000f0 b3 f4 8d bf 27 b6 88 3f 33 f5 6b bf d7 9f 89 3f
       -1.1090301 1.0680588 -0.9217102 1.0751904
000100 ac d1 83 bf 14 e3 8c 3f da 70 7e 3f 52 d1 81 3f
       -1.0298362 1.1006799 0.9939095 1.0142004
000110 4a 84 83 bf 68 08 86 bf 72 97 71 bf e6 df 8d bf
       -1.0274746 -1.0471315 -0.9437171 -1.1083953
000120 01 12 85 3f a8 bc 7f 3f 71 3b 8b 3f ee dc 66 bf
       1.0396119 0.9989724 1.0877515 -0.9018086
000130 96 17 72 bf 70 f0 67 bf 4e 88 89 bf 16 59 68 bf
       -0.9456724 -0.90601254 -1.0744722 -0.90760934
000140 da 68 87 3f 8a 98 80 3f 75 49 60 bf bf 0e 69 bf
       1.0578873 1.0046551 -0.87612087 -0.91038126
000150 60 d4 80 3f 0e 57 7e 3f b4 8d 87 bf af 28 89 3f
       1.0064812 0.99351585 -1.0590119 1.0715541
000160 12 19 81 bf f3 e6 7c 3f 5c 56 79 3f 68 da 63 bf
       -1.0085776 0.987899 0.973974 -0.89005136
000170 ca 44 6d bf 9a e5 87 bf ae 49 87 3f 06 cb 81 bf
       -0.9268309 -1.0616944 1.056936 -1.0140083
000180 f5 9c 82 3f ee f5 71 bf b4 1e 8b bf dc d4 82 bf
       1.020415 -0.94515884 -1.0868745 -1.022121
000190 78 df 8f 3f 42 eb 7a 3f 35 4a 7b 3f 0d 1a 8b bf
       1.1240072 0.98015225 0.98160106 -1.0867325
0001a0 d8 69 72 bf 41 e5 8e bf c5 3c 80 bf 33 14 83 bf
       -0.94692755 -1.1163713 -1.0018545 -1.0240539
0001b0 1e 6c 8b bf 1a 2c 62 bf 8e fc 8f 3f f4 55 60 bf
       -1.089237 -0.88348544 1.1248949 -0.87631154
0001c0 07 41 72 3f 1e 51 87 3f 44 63 81 bf ea 88 79 3f
       0.94630474 1.057163 -1.0108418 0.9747454
0001d0 56 eb 84 bf 69 02 7b bf ac 62 73 3f c0 00 6c 3f
       -1.0384319 -0.9805055 0.95072436 0.92188644
0001e0 a1 36 7e 3f a6 e2 63 3f 20 57 82 bf 9c f0 6d bf
       0.9930211 0.89017713 -1.0182838 -0.92945266
0001f0 9c 7f 80 bf 84 7e 74 3f 5c 99 67 bf 2e 6f 80 3f
       -1.0038943 0.9550555 -0.9046838 1.0033929
000200 87 fb 81 bf a2 40 80 3f b6 4e 72 bf b3 f0 87 bf
       -1.0154885 1.0019724 -0.94651353 -1.062033
000210 f2 28 6e 3f e2 d2 66 bf f6 d9 75 bf 40 4a 66 3f
       0.9303123 -0.9016553 -0.96035707 0.89957047
000220 2b a9 8d 3f c8 e5 80 3f 03 d7 86 bf 00 db 68 bf
       1.1067251 1.0070124 -1.0534366 -0.9095917
000230 37 70 6f 3f 8d b7 69 bf 38 26 71 3f 84 0d 8d bf
       0.935306 -0.912957 0.9419894 -1.101975
000240 e9 13 8e 3f e5 95 82 bf 4a 5c 87 3f d2 06 76 3f
       1.1099826 -1.0201994 1.0575039 0.96104157
000250 90 8c 81 3f 0c bb 84 bf 50 9f 73 3f 8e 7b 7d 3f
       1.0121021 -1.0369582 0.95164967 0.99016654
000260 cb e8 6c bf 89 8b 8c 3f 47 ad 8d 3f aa 4b 80 3f
       -0.92542714 1.0980083 1.1068505 1.0023091
000270 a4 19 60 bf 75 9b 8c 3f da 2d 81 3f f4 ea 73 3f
       -0.87539124 1.0984942 1.0092118 0.95280385
000280 a8 75 84 3f 33 0c 72 bf 7e f5 66 bf b8 0a 83 3f
       1.0348406 -0.94549865 -0.9021834 1.0237646
000290 9e b2 8d 3f d6 6d 81 3f bd 06 8f bf 16 df 6c bf
       1.1070135 1.0111644 -1.1173931 -0.925279
0002a0 38 ef 79 bf bb 30 63 bf bd cb 78 bf 15 89 80 bf
       -0.97630644 -0.8874623 -0.9718588 -1.0041834
0002b0 b4 61 89 bf 60 57 76 bf d0 e0 8c 3f 06 da 70 3f
       -1.0732942 -0.96227074 1.1006107 0.9408268
0002c0 a7 f8 8c bf f3 64 85 3f f0 49 71 bf 8b d4 86 3f
       -1.1013383 1.0421432 -0.94253445 1.0533613
0002d0 89 a0 8d bf ab 88 71 bf 76 f0 73 3f c6 80 8a bf
       -1.1064616 -0.94349164 0.9528879 -1.0820549
0002e0 eb 95 8a 3f c3 8b 80 3f b8 ba 60 bf 90 97 85 bf
       1.0827001 1.0042652 -0.8778491 -1.0436878
0002f0 2a 8e 74 3f c6 cc 8a bf 72 67 75 3f e0 e7 8e 3f
       0.95529425 -1.0843742 0.9586097 1.1164513
000300 e4 7f 7c bf a1 9c 64 3f c1 39 62 3f 31 a6 88 3f
       -0.98632646 0.89301497 0.88369375 1.0675718
000310 03 79 84 bf cd 41 74 bf 6d 26 82 bf 22 ff 85 bf
       -1.034943 -0.95412904 -1.0167977 -1.0468485
000320 15 d2 6a 3f 26 d6 78 3f 2c 26 80 3f 82 54 73 bf
       0.9172681 0.97201765 1.0011649 -0.95050824
000330 24 9a 8e bf 46 3d 89 bf 52 c9 83 bf 10 4f 61 bf
       -1.114079 -1.0721824 -1.0295813 -0.88011265
000340 cc 02 6e 3f dc 9d 88 3f 73 e9 77 bf 89 5f 70 bf
       0.9297302 1.0673175 -0.9684059 -0.93895775
000350 73 85 86 3f 8c 31 6c 3f 3a 33 8f bf a1 cb 64 3f
       1.0509475 0.922631 -1.1187508 0.89373213
000360 13 72 7b bf 99 54 8f 3f 0c 2f 6c 3f 6e a4 89 bf
       -0.9822094 1.1197692 0.9225929 -1.0753305
000370 4f 06 67 bf 0b bb 65 bf 45 c8 8b 3f ac e3 88 bf
       -0.90244 -0.8973853 1.0920492 -1.069448
000380 bd f7 82 3f d6 73 6d bf d2 f0 7d bf 47 62 85 bf
       1.0231854 -0.92754877 -0.9919559 -1.0420617
000390 a5 d2 82 3f 91 c8 85 3f a7 7e 8b 3f 02 39 8c bf
       1.0220534 1.0451833 1.0898026 -1.0954897
0003a0 f7 36 8b bf 64 9f 62 bf 8c 7b 60 bf fa ac 6d bf
       -1.0876149 -0.8852446 -0.8768852 -0.92842066
0003b0 9b 9c 7e bf 04 db 75 bf 0e 97 6e 3f ee 19 71 bf
       -0.9945771 -0.96037316 0.9319924 -0.9418019
0003c0 30 04 76 3f 71 a8 75 3f 1e da 80 bf 55 e5 89 3f
       0.9610014 0.95960146 -1.0066564 1.0773112
0003d0 13 54 8c bf 31 58 82 bf f1 f7 8d 3f 63 6d 8d 3f
       -1.0963157 -1.0183164 1.1091291 1.1049007
0003e0 bf 80 84 3f 5e 81 85 3f 06 f2 7b bf 8c 26 84 bf
       1.035179 1.0430105 -0.98416173 -1.0324264
0003f0 ab 9a 71 bf ae 0d 82 3f 43 94 84 bf 38 80 74 3f
       -0.9437663 1.0160425 -1.0357746 0.95508146
