models/stock_lstm_model.pth (torch, 208822 bytes, 9 tensors)

lstm.weight_ih_l0 f4 [256, 4]
0	0xbf31f84f	-0.69519514
1	0xbf196bef	-0.5993032
2	0xbf3b5bb5	-0.7318681
3	0xbf46b8e3	-0.77625865
4	0xbf212896	-0.62952554
5	0xbf2d58ce	-0.6771363
6	0xbf3fec98	-0.7497039
7	0xbf4924d8	-0.78571844
8	0xbf2be235	-0.6714204
9	0xbf25be0a	-0.647431
10	0xbf28b787	-0.6590504
11	0xbf49cf17	-0.7883162
12	0x3f3e5066	0.7434143
13	0x3f26a694	0.6509793
14	0x3f27cfb1	0.65551287
15	0x3f3005a1	0.6875859
16	0x3f474ffe	0.77856433
17	0x3f39a3f7	0.72515815
18	0x3f3e0e78	0.7424083
19	0x3f25c0f8	0.6474757
20	0xbf280c55	-0.6564382
21	0xbf437d94	-0.7636349
22	0xbf2dc859	-0.6788383
23	0xbf49a88e	-0.7877282
24	0xbf39f67e	-0.7264174
25	0xbf3ccd80	-0.7375107
26	0xbf17db36	-0.59318864
27	0xbf516eff	-0.8180999
28	0xbf235d4f	-0.6381425
29	0xbf3b22b0	-0.73099804
30	0xbf2161ad	-0.63039666
31	0xbf3686ed	-0.7129963
32	0x3f422d48	0.75850344
33	0x3f310c87	0.6915974
34	0x3f4260db	0.7592904
35	0x3f5319bd	0.8246115
36	0x3f19f534	0.60139775
37	0x3f43ddd5	0.76510364
38	0x3f4c1465	0.7971862
39	0x3f4e6928	0.80629206
40	0xbf376c72	-0.7164985
41	0xbf4b4152	-0.79396546
42	0xbf46e1a2	-0.7768804
43	0xbf49f8e5	-0.7889541
44	0xbf3dda83	-0.7416155
45	0xbf34485d	-0.7042292
46	0xbf12ac14	-0.5729382
47	0xbf2d4e14	-0.6769726
48	0x3f14f9bc	0.58193564
49	0xbec74998	-0.38923335
50	0x3f350d53	0.70723456
51	0x3f4d25f8	0.8013606
52	0xbf1c2cd5	-0.6100591
53	0xbf2e047b	-0.67975587
54	0xbf14a581	-0.5806504
55	0xbf183457	-0.59454864
56	0xbeb0874e	-0.3447823
57	0xbf0755a3	-0.52865046
58	0xbeda96e0	-0.42693233
59	0xbef79436	-0.48355263
60	0xbf0dfe3c	-0.55466056
61	0xbf43e2a5	-0.7651771
62	0xbf3cc247	-0.73733944
63	0xbf363ec7	-0.7118954
64	0x3f4250d3	0.7590458
65	0xbf080825	-0.5313743
66	0x3f1ad19f	0.60476106
67	0x3f25cb65	0.6476348
68	0xbf255bbf	-0.6459312
69	0xbf26b10b	-0.65113896
70	0xbf3b6852	-0.73206055
71	0xbf2fdf6e	-0.687003
72	0xbf32c441	-0.6983071
73	0xbf29f379	-0.66387135
74	0xbf380c8c	-0.71894145
75	0xbf40270b	-0.75059575
76	0x3f4b6e57	0.7946524
77	0x3f37f906	0.71864355
78	0x3f383048	0.7194867
79	0x3f4d6759	0.8023582
80	0xbf341775	-0.7034829
81	0xbf390c14	-0.72284055
82	0xbf2d248b	-0.67633885
83	0xbf24baf2	-0.64347756
84	0x3f28c03d	0.6591833
85	0x3f3554c6	0.7083248
86	0x3f2ca44f	0.67438215
87	0x3f3cb1c1	0.7370873
88	0xbf434b5e	-0.76286876
89	0xbf32fe5b	-0.69919366
90	0xbf1e40ef	-0.6181783
91	0xbf3fb766	-0.7488922
92	0xbf129b15	-0.57267886
93	0xbf3795e6	-0.717131
94	0xbf23d108	-0.6399083
95	0xbf3f4fd5	-0.7473119
96	0x3f1c8042	0.61133206
97	0x3f11c5ce	0.5694245
98	0x3f3f7fb1	0.74804217
99	0x3f21336f	0.62969106
100	0xbf324322	-0.69633687
101	0xbf4bd02f	-0.7961454
102	0xbf40cb5b	-0.75310296
103	0xbf3717f1	-0.71520907
104	0x3f1ba0ea	0.6079241
105	0x3f2dbcff	0.6786651
106	0x3f3d1f83	0.7387621
107	0x3f4a2501	0.78962713
108	0xbf13c276	-0.577186
109	0xbf1ed8e5	-0.62049705
110	0xbf32bcbf	-0.69819254
111	0xbe9acab4	-0.30232775
112	0xbf121fae	-0.5707959
113	0xbf15ffd3	-0.5859348
114	0xbf1047c1	-0.5635949
115	0xbf409cda	-0.75239336
116	0x3f3f4aee	0.7472371
117	0x3f36c17d	0.7138899
118	0x3f50082a	0.8126246
119	0x3f5180a1	0.818369
120	0x3f29c250	0.6631212
121	0x3f24e5ea	0.6441332
122	0x3f53bc74	0.8270943
123	0x3f4cf0d8	0.80055
124	0xbf1395a2	-0.57650197
125	0xbf39ba90	-0.72550297
126	0xbf30d69a	-0.69077456
127	0xbf39674a	-0.7242323
128	0x3f385d87	0.7201771
129	0x3f510314	0.8164532
130	0x3f4cab82	0.799492
131	0x3f1ad8ed	0.6048725
132	0xbf32a5d9	-0.69784313
133	0xbf4e1e45	-0.8051494
134	0xbf3c8c0e	-0.73651206
135	0xbf45e712	-0.7730571
136	0x3f486a6d	0.7828739
137	0x3f2cbe3a	0.6747776
138	0x3f316a9e	0.6930331
139	0x3f2357f4	0.6380608
140	0xbf4130eb	-0.7546527
141	0xbf27cc2e	-0.6554593
142	0xbf33c6de	-0.7022532
143	0xbf0c41f0	-0.5478811
144	0x3f215b34	0.6302979
145	0x3f0b4f7f	0.54418176
146	0x3f245908	0.6419835
147	0x3f3734a2	0.71564686
148	0xbf47d412	-0.7805797
149	0xbf47449b	-0.7783906
150	0xbf3b28b9	-0.7310901
151	0xbf50d720	-0.81578255
152	0x3f1678d1	0.587781
153	0x3f1b67e0	0.60705376
154	0x3f38bb2a	0.7216059
155	0x3f4beed8	0.7966132
156	0x3f4d24d8	0.80134344
157	0x3f2e8ca6	0.6818336
158	0x3f50f871	0.8162909
159	0x3f46e87d	0.776985
160	0xbf1320b0	-0.5747175
161	0xbf28da4e	-0.65958107
162	0xbf520497	-0.82038254
163	0xbf178719	-0.5919052
164	0xbf1cbc48	-0.61224794
165	0xbf121f2e	-0.57078826
166	0xbf1c5028	-0.6105981
167	0xbf2e1564	-0.6800139
168	0xbf41f97e	-0.7577132
169	0xbf431b04	-0.762131
170	0xbf18fc6e	-0.5976018
171	0xbf39b58e	-0.72542655
172	0xbf2fb546	-0.68635976
173	0xbf261874	-0.6488106
174	0xbf4fca9f	-0.8116855
175	0xbf1a97d6	-0.60387933
176	0xbf4e15be	-0.80501926
177	0xbf429eaa	-0.7602335
178	0xbf356f4a	-0.7087294
179	0xbf48e73c	-0.78477836
180	0xbf46fd2a	-0.7773005
181	0xbf213204	-0.6296694
182	0xbf1bbf84	-0.60839105
183	0xbf3df99e	-0.7420901
184	0x3f4a8523	0.791094
185	0x3f16bfd0	0.5888643
186	0x3f4ccc1d	0.7999895
187	0x3f2a4912	0.66517746
188	0xbf21c1fa	-0.6318661
189	0xbf3831b1	-0.71950823
190	0xbf1dc799	-0.61632687
191	0xbf27dd04	-0.6557162
192	0x3f362fb8	0.71166563
193	0x3f1bdaff	0.60881037
194	0x3f1ff92b	0.62489575
195	0x3f48fbbe	0.7850913
196	0xbf2f30dd	-0.68433934
197	0xbf387aa8	-0.7206216
198	0xbf294808	-0.66125536
199	0xbf3aaece	-0.7292298
200	0xbf18a4b6	-0.5962633
201	0xbf4d2bd8	-0.80145025
202	0xbf390416	-0.7227186
203	0xbf1ff32e	-0.6248044
204	0x3f1ecc6f	0.6203069
205	0x3f4429fd	0.7662657
206	0x3f2a19a5	0.6644538
207	0x3f340f92	0.7033626
208	0x3f4d1368	0.80107737
209	0x3f5a185f	0.8519344
210	0x3f429639	0.7601047
211	0x3f4b8bd1	0.7951022
212	0x3f285e54	0.65768933
213	0x3f1f847a	0.6231152
214	0x3f541a76	0.82852876
215	0x3f18eca9	0.59736115
216	0xbf2fbfc4	-0.68651986
217	0xbf29d600	-0.66342163
218	0xbf239989	-0.6390615
219	0xbf38974a	-0.7210585
220	0x3f54f26f	0.83182424
221	0x3f2e48e3	0.68079966
222	0x3f349076	0.7053293
223	0x3f3a044e	0.7266282
224	0x3f2ea483	0.68219775
225	0x3f28142f	0.656558
226	0x3f495280	0.7864151
227	0x3f4af116	0.7927412
228	0xbf199484	-0.5999224
229	0xbf327f5e	-0.69725597
230	0xbf27d676	-0.65561616
231	0xbf338169	-0.7011934
232	0x3f3c1dc8	0.7348294
233	0x3f199ad3	0.6000187
234	0x3f355b9d	0.70842916
235	0x3f2f58b7	0.68494743
236	0xbf19734a	-0.5994154
237	0xbf31aa08	-0.6940007
238	0xbf4c113f	-0.79713815
239	0xbf3a0e45	-0.72678024
240	0x3f3d6614	0.73983884
241	0x3f5c7612	0.8611766
242	0x3f1dc701	0.6163178
243	0x3f36a6a4	0.71348023
244	0x3f4686d9	0.7754951
245	0x3f3c6eb7	0.7360644
246	0x3f2af489	0.6677938
247	0x3f487c5f	0.78314775
248	0x3f462630	0.7740202
249	0x3f31d48f	0.69464964
250	0x3f2774a3	0.6541235
251	0x3f52ae07	0.82296795
252	0xbf3695e1	-0.7132245
253	0xbf31f8e1	-0.69520384
254	0xbf2157a3	-0.6302435
255	0xbf1a9fba	-0.60399973

lstm.weight_hh_l0 f4 [256, 64]
0	0xbebb605d	-0.36596957
1	0x3eeac572	0.45853764
2	0x3e93f7ad	0.288999
3	0x3f1c9948	0.6117139
4	0xbf3aa2d5	-0.7290471
5	0x3ed6eb38	0.41976333
6	0x3e9e677c	0.30938327
7	0x3ee08127	0.43848535
8	0x3f14b545	0.58089095
9	0xbf13efba	-0.5778767
10	0xbe7c18b7	-0.24618803
11	0x3eb0d1ac	0.34534967
12	0xbf05eebb	-0.523174
13	0x3e9dbaba	0.30806524
14	0xbf0340be	-0.51270664
15	0x3eae3e3a	0.3403185
16	0xbf294a3e	-0.6612891
17	0x3ed75b89	0.42062023
18	0xbec559de	-0.38545126
19	0x3eea8155	0.45801798
20	0x3eab8768	0.33501744
21	0xbf22ac70	-0.6354437
22	0x3e923ef0	0.28563643
23	0x3eaba29f	0.33522508
24	0x3f11f259	0.5701042
25	0xbee99281	-0.45619586
26	0x3f196958	0.59926367
27	0x3edb44d1	0.4282594
28	0xbe9b205f	-0.30298135
29	0xbf0b599c	-0.5443361
30	0xbf07c89b	-0.53040475
31	0xbe84f431	-0.25967553
32	0x3f0d8ee2	0.55296147
33	0xbedb6b9b	-0.42855534
34	0x3f216e14	0.6305859
35	0x3ee02383	0.43777093
36	0x3f2a7245	0.6658061
37	0xbe90e72a	-0.28301364
38	0x3effbd64	0.4994918
39	0xbf1ef683	-0.620949
40	0x3e8e0c31	0.27743676
41	0xbeae12e2	-0.3399878
42	0xbe7d621e	-0.2474446
43	0x3e87574d	0.26433793
44	0xbe87880e	-0.2647099
45	0x3ea4ceb6	0.32188958
46	0xbf015401	-0.50518805
47	0xbe8f1fe8	-0.2795403
48	0x3f30ab1d	0.690111
49	0x3e8be524	0.27323258
50	0xbea60fdf	-0.32433984
51	0x3eee930a	0.46596557
52	0xbf10fe20	-0.56637764
53	0xbf2e6d77	-0.6813578
54	0xbeb6ac36	-0.35678262
55	0xbf04b6a6	-0.518412
56	0xbf02423a	-0.50882304
57	0x3eeb2a97	0.4593093
58	0x3f0cd36f	0.5501012
59	0xbe87c02e	-0.2651381
60	0xbf1f1f88	-0.6215749
61	0xbf19ae21	-0.60031325
62	0xbf1154d6	-0.56770074
63	0x3ecaaba4	0.39584076
64	0xbed8cd58	-0.42344165
65	0x3eaa718e	0.3328976
66	0x3ef45afd	0.4772567
67	0x3f0211ec	0.50808597
68	0xbf1a17e6	-0.60192716
69	0x3eeab3b8	0.4584024
70	0x3e9327e8	0.28741384
71	0x3ebc57d7	0.36785766
72	0x3f0d4b50	0.5519304
73	0xbf1a8330	-0.60356426
74	0xbeb34966	-0.35016936
75	0x3ebbc4fe	0.3667373
76	0xbeeaac60	-0.45834637
77	0x3ea1f396	0.31631154
78	0xbef04df9	-0.46934488
79	0x3e96af40	0.2943058
80	0xbefcdcb7	-0.49387142
81	0x3e97587e	0.29559702
82	0xbef8c9c4	-0.48591435
83	0x3f3570f0	0.70875454
84	0x3e7ec46e	0.2487962
85	0xbf3c2287	-0.73490185
86	0x3ec543e0	0.38528347
87	0x3e96a799	0.29424742
88	0x3eff8fbc	0.49914348
89	0xbe890411	-0.26760915
90	0x3f18c0e5	0.59669334
91	0x3ec3202c	0.38110483
92	0xbebbc909	-0.36676815
93	0xbf2a73d8	-0.66583014
94	0xbf2e78c9	-0.68153054
95	0xbe8c9a42	-0.2746144
96	0x3f2111a6	0.62917554
97	0xbe8c5c6e	-0.27414268
98	0x3ef33a7c	0.47505558
99	0x3ec77b33	0.3896118
100	0x3efcd5db	0.4938191
101	0xbe911214	-0.28334105
102	0x3f310047	0.6914105
103	0xbf33a461	-0.701727
104	0x3ea516c4	0.3224393
105	0xbe7a2c26	-0.24430904
106	0xbec9ac7d	-0.3938941
107	0x3ec0c2a4	0.376485
108	0xbecb7f4a	-0.3974555
109	0x3e8410ca	0.2579406
110	0xbf2b15e4	-0.6683028
111	0xbec12cf6	-0.37729615
112	0x3f0eb434	0.5574372
113	0x3ee02d83	0.43784723
114	0xbec852d6	-0.391257
115	0x3f39b3b9	0.7253986
116	0xbf35590e	-0.7083901
117	0xbf10a9ea	-0.5650927
118	0xbeb02cdd	-0.34409228
119	0xbf057a1c	-0.5213945
120	0xbf2c0e86	-0.6720966
121	0x3e9c85d9	0.30570868
122	0x3f128492	0.57233536
123	0xbe7d31a4	-0.24725968
124	0xbf2c068f	-0.6719751
125	0xbf0d4a95	-0.5519193
126	0xbf06c2d8	-0.5264106
127	0x3ea85f41	0.32885173
128	0xbea9c688	-0.3315928
129	0x3e75bec5	0.23998554
130	0x3e9a84ee	0.30179542
131	0x3f3b2526	0.7310356
132	0xbf47ab53	-0.77995795
133	0x3e85ffb6	0.26171654
134	0x3ed4f1bd	0.41590682
135	0x3e7f0f83	0.24908261
136	0x3f35cfbd	0.7102011
137	0xbf100d15	-0.5626996
138	0xbeadec49	-0.33969334
139	0x3e898383	0.26858148
140	0xbf06e945	-0.5269969
141	0x3ea3fc3b	0.32028374
142	0xbef424d0	-0.47684336
143	0x3e97cbb2	0.29647595
144	0xbf2a6f9e	-0.66576564
145	0x3e89e06e	0.2692904
146	0xbe8e6315	-0.2780997
147	0x3f3088da	0.6895882
148	0x3e9bca40	0.30427742
149	0xbf284cbc	-0.6574209
150	0x3eac5633	0.33659515
151	0x3ed7a45d	0.42117587
152	0x3f2046be	0.62607944
153	0xbe90e140	-0.28296852
154	0x3f2dbe88	0.6786885
155	0x3ea295d8	0.31754947
156	0xbec3608b	-0.38159594
157	0xbf41e440	-0.75738907
158	0xbf103b56	-0.5634054
159	0xbe9a2c03	-0.30111703
160	0x3f3ae985	0.7301257
161	0xbecaf116	-0.3963706
162	0x3f198a20	0.5997639
163	0x3eb11481	0.34585956
164	0x3f34bca2	0.7060033
165	0xbe8957eb	-0.2682489
166	0x3f2cd546	0.6751293
167	0xbf47c548	-0.780354
168	0x3ea4fc8c	0.32223928
169	0xbec34922	-0.38141733
170	0xbe813582	-0.25236136
171	0x3e8f015a	0.2793072
172	0xbeb7d990	-0.35908175
173	0x3eb98b12	0.36238915
174	0xbf4be922	-0.7965261
175	0xbeb12756	-0.34600323
176	0x3f24660d	0.6421822
177	0x3edc5942	0.43036848
178	0xbec7954c	-0.38981092
179	0x3f1924ca	0.5982176
180	0xbf1ed6a9	-0.62046295
181	0xbf2a1a42	-0.66446316
182	0xbe90b2a3	-0.2826129
183	0xbf3ec0f9	-0.745132
184	0xbf18ec04	-0.5973513
185	0x3e8f8f6c	0.2803911
186	0x3f258d16	0.64668405
187	0xbecc5600	-0.39909363
188	0xbf3ba879	-0.73303944
189	0xbf2849d6	-0.65737665
190	0xbeeec440	-0.46634102
191	0x3eb9cd2d	0.3628935
192	0x3ef280fa	0.47364026
193	0xbe8cf64d	-0.27531663
194	0xbe05ebf4	-0.1307829
195	0xbf24f915	-0.6444257
196	0x3f547731	0.8299437
197	0xbeb67ced	-0.35642186
198	0xbeb30462	-0.3496428
199	0xbeb7aab2	-0.35872418
200	0xbf4cc553	-0.7998859
201	0x3f394cf7	0.72383064
202	0x3e852cce	0.26010746
203	0xbe8f7d3b	-0.2802523
204	0x3f325585	0.6966174
205	0xbe6877d9	-0.22701968
206	0x3f1445d1	0.5791903
207	0xbeb4d0bf	-0.3531551
208	0x3f16bb03	0.5887911
209	0x3f3b70a8	0.73218775
210	0x3eb91756	0.36150616
211	0xbf4f160f	-0.80893034
212	0xbec2d6c6	-0.38054484
213	0x3f1f220c	0.62161326
214	0x3f307b87	0.6893849
215	0xbeb445cc	-0.352095
216	0xbf3da92c	-0.7408626
217	0x3e9600ae	0.29297394
218	0xbf4c58d0	-0.7982302
219	0x3f307351	0.6892596
220	0x3eacd38d	0.3375515
221	0x3f3397f6	0.7015375
222	0x3f44fbfc	0.76947
223	0xbf399c3e	-0.7250403
224	0xbf4fd04c	-0.8117721
225	0xbf234df7	-0.6379084
226	0xbf1d35d3	-0.61410254
227	0xbe82b903	-0.25531778
228	0xbf566f1f	-0.8376331
229	0x3e936cd7	0.28793976
230	0xbf2cc3c0	-0.6748619
231	0x3f2fcfcf	0.68676466
232	0xbeacce3d	-0.33751097
233	0x3e791803	0.24325566
234	0xbf5251ae	-0.82155883
235	0xbeaa07f4	-0.33209193
236	0x3ea284bb	0.3174189
237	0xbeb60bac	-0.3555578
238	0x3f24fd6b	0.64449185
239	0x3eab168b	0.33415636
240	0xbf489243	-0.7834818
241	0xbe77f21f	-0.24213456
242	0xbf3593b3	-0.70928496
243	0xbf27860f	-0.6543893
244	0x3f38b06a	0.72144186
245	0x3f3bd01a	0.7336441
246	0x3e858fd8	0.26086307
247	0x3f3715f9	0.715179
248	0x3f40f518	0.75373983
249	0xbe564c33	-0.20927505
250	0xbf49d331	-0.7883788
251	0x3ee48bad	0.44637814
252	0x3f265ae4	0.6498244
253	0x3f1b13ff	0.60577387
254	0x3f26fcc1	0.6522942
255	0xbebda47a	-0.37039548

lstm.bias_ih_l0 f4 [256]
0	0xbf287f6f	-0.6581945
1	0xbf29ebf1	-0.66375643
2	0xbf4ca558	-0.79939795
3	0x3f22710c	0.63453746
4	0x3f4fc6d0	0.8116274
5	0xbf1bc1e8	-0.6084275
6	0xbf29fb2c	-0.6639888
7	0xbf24cc25	-0.64374
8	0x3f466259	0.77493817
9	0x3f3b36e1	0.73130614
10	0xbf391618	-0.7229934
11	0xbf0ef1dd	-0.55837804
12	0x3f2ffdf0	0.6874685
13	0xbf4d36a9	-0.8016153
14	0xbec645da	-0.38725168
15	0xbf12817e	-0.5722884
16	0x3f35edd3	0.71066016
17	0xbf26b9dd	-0.65127355
18	0xbf2dcafb	-0.6788785
19	0x3f1ef1c1	0.6208764
20	0xbf1a3d72	-0.6025001
21	0x3f49f427	0.7888817
22	0xbf228bbe	-0.6349448
23	0xbf1949be	-0.59878147
24	0x3f3107a3	0.6915228
25	0xbf3e8fcf	-0.74438184
26	0x3f1badc4	0.6081202
27	0xbf3103a0	-0.69146156
28	0xbf110995	-0.56655246
29	0x3f170eea	0.5900713
30	0x3f1b9b84	0.60784173
31	0xbf274e62	-0.6535398
32	0x3f465bd4	0.7748387
33	0xbf2ad6da	-0.6673409
34	0x3f29dcfe	0.6635283
35	0xbf4bc4e2	-0.79597294
36	0x3f23e4e6	0.64021146
37	0xbf2cba35	-0.6747163
38	0x3f375a55	0.7162221
39	0x3f2e2acb	0.68034047
40	0xbf4d70de	-0.80250347
41	0xbf44cf04	-0.7687838
42	0xbf296b24	-0.6617911
43	0xbf50ba0f	-0.815339
44	0xbf194331	-0.5986815
45	0xbf233723	-0.63756007
46	0x3f4640bc	0.77442527
47	0xbf36851f	-0.71296877
48	0x3f3cc995	0.7374509
49	0xbf1ca964	-0.6119597
50	0xbf2a353f	-0.664875
51	0x3f278d8e	0.6545037
52	0x3f1fe93e	0.62465274
53	0x3f379da4	0.71724916
54	0xbf3889ff	-0.72085565
55	0x3f1f9d51	0.6234942
56	0x3f515673	0.81772536
57	0xbf3b7085	-0.73218566
58	0x3f51f5ac	0.8201549
59	0xbf4f9670	-0.81088924
60	0x3f41dafd	0.75724775
61	0x3f169954	0.5882771
62	0x3f3c68fc	0.73597693
63	0xbf094282	-0.5361711
64	0xbf2fe14a	-0.6870314
65	0xbf3f4c2b	-0.747256
66	0xbf4b1670	-0.7933111
67	0x3f27f753	0.6561176
68	0x3f368a39	0.7130466
69	0xbf35eb8c	-0.7106254
70	0xbf4a68d4	-0.79066205
71	0xbf15f612	-0.585786
72	0x3f551441	0.8323403
73	0x3f407707	0.7518162
74	0xbf386329	-0.72026306
75	0xbf369e6c	-0.7133548
76	0x3f225fe6	0.6342758
77	0xbf1b2d34	-0.6061585
78	0x3f2e3551	0.68050104
79	0xbf143e96	-0.57908
80	0x3f4b632d	0.79448205
81	0xbf26c0dd	-0.65138036
82	0xbf3bf144	-0.7341502
83	0x3f1c0623	0.60946864
84	0xbf2eb98d	-0.6825188
85	0x3f297adf	0.6620311
86	0xbf452028	-0.7700219
87	0xbf3a2bc6	-0.7272304
88	0x3f3dd2df	0.7414989
89	0xbf462936	-0.7740663
90	0x3f46a17c	0.77590156
91	0xbf214f02	-0.6301118
92	0xbf296a86	-0.66178167
93	0x3f3296d7	0.69761413
94	0x3f49310c	0.78590465
95	0xbf448ac8	-0.76774263
96	0x3f22cce4	0.6359389
97	0xbf323585	-0.69612914
98	0x3f35e994	0.71059537
99	0xbf4cb1de	-0.79958904
100	0x3f4457dd	0.7669657
101	0xbf311903	-0.6917879
102	0x3f317c48	0.69330263
103	0x3f4bf769	0.7967439
104	0xbf4511c3	-0.7698023
105	0xbf29e9c7	-0.6637234
106	0xbf2490b0	-0.64283276
107	0xbf2e813a	-0.68165934
108	0xbf17f9a7	-0.59365314
109	0xbf354e10	-0.7082224
110	0x3f37c599	0.71785885
111	0xbf425afd	-0.7592009
112	0x3f232978	0.6373515
113	0xbf51d08b	-0.81958836
114	0xbf2ac853	-0.6671192
115	0x3f586012	0.8452159
116	0x3f6c5710	0.92320347
117	0xbe296618	-0.16542852
118	0xbf42c5d2	-0.760831
119	0x3f20cdc7	0.6281399
120	0x3f3d911a	0.7404953
121	0xbf307a2a	-0.6893641
122	0x3f39dc2e	0.7260159
123	0xbf52cb89	-0.8234182
124	0x3f634eb8	0.8879199
125	0x3f4ce269	0.80032974
126	0x3f2d503f	0.6770057
127	0xbf3854f4	-0.7200463
128	0xbec40898	-0.38287807
129	0x3e9caa9c	0.30598915
130	0x3ee16e31	0.44029382
131	0xbf64348e	-0.8914269
132	0x3f494afb	0.78630036
133	0x3e95186a	0.2912019
134	0x3e7738b4	0.24142724
135	0x3ec6f08c	0.38855398
136	0xbf5c4291	-0.8603907
137	0x3f22edd2	0.63644135
138	0xbe163da8	-0.14671957
139	0x3ee4f018	0.44714427
140	0x3f324ab1	0.6964522
141	0x3e914d6f	0.2837939
142	0x3f507210	0.81424046
143	0x3ed05de9	0.40696648
144	0x3f43b535	0.76448375
145	0xbd360d28	-0.04444614
146	0xbea2c74e	-0.31792682
147	0xbf6051f8	-0.87625074
148	0x3b557e56	0.0032576523
149	0x3f49421d	0.78616506
150	0xbd5c2c09	-0.053752933
151	0xbc013448	-0.007886
152	0xbf472063	-0.77783793
153	0xbe341758	-0.1758703
154	0xbf42a0f1	-0.7602683
155	0x3e9745c4	0.29545414
156	0xbe43a7a8	-0.19106925
157	0x3f4c8c27	0.79901356
158	0x3f4735e3	0.778166
159	0xbeac1011	-0.33606008
160	0xbf5c8c5c	-0.8615167
161	0xbda1500e	-0.07876597
162	0xbf629c55	-0.88519794
163	0x3e3ee920	0.18643618
164	0xbf4929f8	-0.78579664
165	0xbec3ad8d	-0.38218346
166	0xbf4cfb80	-0.8007126
167	0x3f68fc68	0.9101014
168	0x3ed4aede	0.41539663
169	0xbed22577	-0.41044208
170	0xbebf1704	-0.37322247
171	0x3ea0fc2c	0.31442392
172	0xbe7c7905	-0.2465554
173	0x3de8908c	0.11355695
174	0x3f2d4c22	0.67694294
175	0xbeb9e9e8	-0.3631127
176	0xbf5fb38d	-0.8738335
177	0x3eed62c4	0.46364415
178	0x3dc95dcf	0.09832346
179	0xbf5596f0	-0.8343344
180	0x3f4af8cd	0.7928589
181	0x3f5d5a0b	0.8646552
182	0xbe041159	-0.12897243
183	0x3f5adbc1	0.8549157
184	0x3f641773	0.8909828
185	0x3e88ff2a	0.26757175
186	0xbf38c35a	-0.7217308
187	0xbe93ca45	-0.28865257
188	0x3f6f4d68	0.9347749
189	0x3f5f7614	0.8728955
190	0x3f3bb568	0.7332368
191	0x3eec18b6	0.46112603
192	0xbf2d86f3	-0.6778404
193	0xbf45c6ca	-0.77256453
194	0xbf3608ee	-0.71107376
195	0x3ef8c45a	0.48587304
196	0x3f1abf29	0.6044794
197	0xbf519bb7	-0.81878227
198	0xbf4beffc	-0.7966306
199	0xbf1b29f8	-0.60610914
200	0x3f334861	0.70032316
201	0x3f0f6911	0.56019694
202	0xbf44b063	-0.76831645
203	0xbf461123	-0.773699
204	0x3f1208b4	0.5704453
205	0xbf396a71	-0.7242804
206	0xbefc392b	-0.49262366
207	0xbf36938e	-0.713189
208	0x3f02a7ef	0.51037496
209	0xbf33fad3	-0.703046
210	0xbf2feea5	-0.6872352
211	0x3f36a880	0.7135086
212	0xbf32290a	-0.6959387
213	0x3f45503b	0.77075547
214	0xbf448a65	-0.76773673
215	0xbf149caf	-0.5805158
216	0x3f062d31	0.52412707
217	0xbf3a44ee	-0.7276143
218	0x3f2abe3e	0.66696537
219	0xbf257772	-0.64635384
220	0xbf29e0e0	-0.66358757
221	0x3efdd7b1	0.49578622
222	0x3ef53e8f	0.4789929
223	0xbf16830b	-0.58793706
224	0x3f340ca2	0.70331776
225	0xbf436373	-0.7632362
226	0x3f231ec9	0.6371885
227	0xbf350c3c	-0.70721793
228	0x3f16be01	0.5888367
229	0xbf2632b3	-0.6492111
230	0x3f21912d	0.63112146
231	0x3f12e6f6	0.5738367
232	0xbf51c4a2	-0.8194066
233	0xbf1855f8	-0.5950618
234	0xbf148c81	-0.5802689
235	0xbf47e4b9	-0.7808338
236	0xbf22bf84	-0.6357348
237	0xbf4107e3	-0.7540266
238	0x3f0ed5cc	0.5579498
239	0xbf42170c	-0.75816417
240	0x3f3ee820	0.74572945
241	0xbf14e64d	-0.5816391
242	0xbf28f2cf	-0.65995497
243	0x3f38e894	0.72229886
244	0x3f21dc26	0.63226545
245	0x3f1a250c	0.6021278
246	0xbf1312b2	-0.574504
247	0x3f2d3d9d	0.6767214
248	0x3f102030	0.56299114
249	0xbf27d61c	-0.6556108
250	0x3f020884	0.50794244
251	0xbf2597a2	-0.646845
252	0x3f0ac9e4	0.5421431
253	0x3f281a08	0.6566472
254	0x3f12fd1e	0.57417476
255	0xbf356cbf	-0.7086906

lstm.bias_hh_l0 f4 [256]
0	0xbf46e2cd	-0.7768982
1	0xbf410143	-0.7539255
2	0xbf1b4cd8	-0.6066413
3	0x3f372b9d	0.71550924
4	0x3f2d9966	0.6781219
5	0xbf47f56c	-0.7810886
6	0xbf213382	-0.6296922
7	0xbf3e3f4c	-0.74315333
8	0x3f241f60	0.64110374
9	0x3f4eb73f	0.8074836
10	0xbf4a8873	-0.79114455
11	0xbf42a4a2	-0.7603246
12	0x3f25b86a	0.6473452
13	0xbf1288bb	-0.57239884
14	0xbe847d17	-0.25876686
15	0xbf38ba73	-0.721595
16	0x3f3a073e	0.726673
17	0xbf4113a4	-0.75420594
18	0xbf07950d	-0.5296181
19	0x3f3b204d	0.7309616
20	0xbf3ad3c4	-0.7297938
21	0x3f44388b	0.7664878
22	0xbf400fa4	-0.75023866
23	0xbf31f30e	-0.695115
24	0x3f3ba2ce	0.73295295
25	0xbf13be58	-0.57712317
26	0x3f39b102	0.7253572
27	0xbef3743b	-0.47549614
28	0xbf450a53	-0.7696888
29	0x3f32296c	0.69594455
30	0x3f378526	0.71687543
31	0xbf1234b7	-0.57111686
32	0x3f384e90	0.71994877
33	0xbf484a67	-0.7823853
34	0x3f378445	0.716862
35	0xbf232a72	-0.6373664
36	0x3f51e763	0.81993693
37	0xbf25d9b3	-0.6478531
38	0x3f18ec78	0.5973582
39	0x3f1f1147	0.6213574
40	0xbf146b9e	-0.5797671
41	0xbf2d35df	-0.67660326
42	0xbf15242e	-0.5825833
43	0xbf23ad0c	-0.63935924
44	0xbf451af1	-0.76994234
45	0xbf2b4670	-0.66904354
46	0x3f485240	0.78250504
47	0xbf35c56e	-0.7100438
48	0x3f1895c3	0.5960352
49	0xbf211079	-0.6291576
50	0xbf1b82c0	-0.60746384
51	0x3f1908d4	0.59779096
52	0x3f47cfc3	0.78051394
53	0x3f336ca2	0.70087636
54	0xbf1c1f6f	-0.60985464
55	0x3f4d58a4	0.8021338
56	0x3f40c093	0.75293845
57	0xbf4d2d9f	-0.8014774
58	0x3f4ead5c	0.80733275
59	0xbf44fded	-0.7694996
60	0x3f2b61f0	0.66946316
61	0x3f46a2eb	0.77592343
62	0x3f403c56	0.75092065
63	0xbf254bb7	-0.64568657
64	0xbf171ce1	-0.5902844
65	0xbf217928	-0.63075495
66	0xbf313311	-0.69218546
67	0x3f2c5524	0.67317414
68	0x3f2fc185	0.6865466
69	0xbf2fc376	-0.68657625
70	0xbf2f50e2	-0.6848279
71	0xbf459ab4	-0.77189183
72	0x3f4677c2	0.77526486
73	0x3f25d041	0.64770895
74	0xbf1ba624	-0.60800385
75	0xbf4fcf0a	-0.8117529
76	0x3f2d6d8f	0.677453
77	0xbf532164	-0.82472825
78	0x3f4fd34d	0.81181794
79	0xbf50064a	-0.81259596
80	0x3f458b7e	0.77165973
81	0xbf400884	-0.75012994
82	0xbf34f096	-0.70679605
83	0x3f4efb1b	0.80851907
84	0xbf2fc700	-0.68663025
85	0x3f3e7d28	0.74409723
86	0xbf523dab	-0.8212535
87	0xbf1989a1	-0.5997563
88	0x3f483c0f	0.7821664
89	0xbf36d7e0	-0.7142315
90	0x3f22cdf5	0.63595515
91	0xbf17dd8c	-0.5932243
92	0xbf23f346	-0.6404308
93	0x3f424483	0.7588579
94	0x3f1a2f86	0.60228765
95	0xbf349046	-0.70532644
96	0x3f441a1a	0.7660233
97	0xbf55e6c6	-0.8355526
98	0x3f1b2ee0	0.606184
99	0xbf3dcf60	-0.74144554
100	0x3f4af4ec	0.7927997
101	0xbf1c15a6	-0.6097053
102	0x3f1b0bde	0.6056498
103	0x3f2a5c4a	0.6654707
104	0xbf4c6066	-0.7983459
105	0xbf3918ab	-0.72303265
106	0xbf38840b	-0.7207648
107	0xbf4af081	-0.7927323
108	0xbf503e3d	-0.8134497
109	0xbf29957a	-0.6624371
110	0x3f27bb78	0.6552043
111	0xbf34330f	-0.7039041
112	0x3f28e527	0.6597466
113	0xbf1a9d7f	-0.6039657
114	0xbf275237	-0.65359825
115	0x3f5b4026	0.8564476
116	0x3f69d86f	0.91345876
117	0xbe5a53b2	-0.2132099
118	0xbf3b2552	-0.7310382
119	0x3f4a8adf	0.7911815
120	0x3f3ffa0b	0.7499091
121	0xbf32432b	-0.6963374
122	0x3f4e53a2	0.80596364
123	0xbf29e573	-0.66365737
124	0x3f469da8	0.77584314
125	0x3f53aacb	0.82682484
126	0x3f203014	0.6257336
127	0xbf3a80c4	-0.7285273
128	0xbeb1e11d	-0.3474206
129	0x3ecd4187	0.40089056
130	0x3e576397	0.21034084
131	0xbf43c346	-0.7646984
132	0x3f59ec24	0.85125947
133	0x3e4addbe	0.1981115
134	0x3eec6fea	0.46179134
135	0x3ec06b42	0.3758183
136	0xbf72fd3d	-0.9491766
137	0x3f4adb1b	0.7924058
138	0xbe547afc	-0.2075004
139	0x3eb9d22f	0.3629317
140	0x3f475d4a	0.7787672
141	0x3d641683	0.05568553
142	0x3f1ec255	0.6201528
143	0x3eeab72e	0.4584288
144	0x3f5b5e5d	0.8569086
145	0xbcf1a733	-0.029498672
146	0xbee83310	-0.45351458
147	0xbf5012b7	-0.81278557
148	0xbb17a2d1	-0.0023137818
149	0x3f7043c9	0.9385343
150	0x3da98ffa	0.082794145
151	0x3e3900e9	0.18066753
152	0xbf2a9adb	-0.6664254
153	0xbeb48dd2	-0.3526445
154	0xbf624326	-0.8838371
155	0x3e7d5e63	0.24743037
156	0xbec0e1de	-0.37672323
157	0x3f594c2d	0.8488186
158	0x3f5fe24e	0.8745469
159	0xbe4b0f0c	-0.19829959
160	0xbf581db6	-0.84420335
161	0xbdf6b69c	-0.12046549
162	0xbf34c8ea	-0.7061907
163	0x3e67bb49	0.22630037
164	0xbf1c0cb6	-0.60956895
165	0xbed1181c	-0.40838706
166	0xbf3c4aa8	-0.73551416
167	0x3f632ad2	0.88737214
168	0x3ed5ea84	0.41780484
169	0xbebe4299	-0.37160185
170	0xbe9a9cc7	-0.30197737
171	0x3ea374c8	0.31925035
172	0xbe4ce3fc	-0.20008844
173	0x3e4d4e3f	0.2004938
174	0x3f5ab4f4	0.8543236
175	0xbe8e81d6	-0.27833432
176	0xbf55abf3	-0.834655
177	0x3ed26f33	0.41100463
178	0x3d85f4b0	0.06540811
179	0xbf5f1d6c	-0.8715427
180	0x3f75e4bb	0.9605214
181	0x3f5f4b3b	0.8722417
182	0xbe8587df	-0.26080224
183	0x3f6a69b4	0.9156754
184	0x3f61d341	0.8821297
185	0x3ea801c5	0.3281385
186	0xbf5378ad	-0.8260601
187	0xbeaaf9b5	-0.33393636
188	0x3f6978f7	0.912002
189	0x3f49800e	0.7871102
190	0x3f5dc32e	0.86625946
191	0x3ec52c57	0.3851039
192	0xbf40d551	-0.75325495
193	0xbf454aa3	-0.7706701
194	0xbf1a40bb	-0.6025502
195	0x3f33765f	0.70102495
196	0x3f121e9e	0.5707797
197	0xbf1c3dd2	-0.6103183
198	0xbf12e6f7	-0.57383674
199	0xbf260f5e	-0.648672
200	0x3f349ddf	0.7055339
201	0x3ef956b1	0.48698953
202	0xbf4b357b	-0.7937848
203	0xbf390ff9	-0.7229
204	0x3edd8a11	0.432694
205	0xbf1832ce	-0.5945252
206	0xbf2826a1	-0.65683943
207	0xbf18121a	-0.5940262
208	0x3f19997b	0.5999982
209	0xbf52d97f	-0.8236312
210	0xbf202b37	-0.6256594
211	0x3eee9580	0.46598434
212	0xbf3f0735	-0.7462037
213	0x3f38c531	0.7217589
214	0xbf36f8c6	-0.7147335
215	0xbf24663a	-0.64218485
216	0x3f2c920a	0.6741034
217	0xbf30ac7e	-0.690132
218	0x3f15b09d	0.58472615
219	0xbf230c82	-0.6369096
220	0xbf2788ff	-0.65443414
221	0x3f1a9070	0.60376644
222	0x3f080f86	0.53148687
223	0xbf2960e1	-0.6616345
224	0x3f168e3f	0.588108
225	0xbf4c399a	-0.79775393
226	0x3f36c16f	0.71388906
227	0xbf139bce	-0.57659614
228	0x3f158d14	0.58418393
229	0xbf475d64	-0.7787688
230	0x3ef65dfa	0.48118573
231	0x3f2aea66	0.66763914
232	0xbf2dbf43	-0.6786997
233	0xbf379bcf	-0.7172212
234	0xbf3de80f	-0.7418222
235	0xbf166e04	-0.5876162
236	0xbf176422	-0.59137166
237	0xbf176092	-0.5913173
238	0x3f28e097	0.65967697
239	0xbf13abfb	-0.57684296
240	0x3f175449	0.59112984
241	0xbf467b4a	-0.77531874
242	0xbf45bba2	-0.7723943
243	0x3f18f0f1	0.5974265
244	0x3f135992	0.5755855
245	0x3f1fc597	0.62410873
246	0xbf2e91b0	-0.6819105
247	0x3f48753f	0.78303903
248	0x3f2ee18d	0.68312913
249	0xbf172f32	-0.5905639
250	0x3ef77003	0.48327646
251	0xbf29658c	-0.66170573
252	0x3f314be2	0.69256413
253	0x3f0d3b6c	0.55168796
254	0x3f0bb455	0.5457204
255	0xbf2cf75b	-0.67564934

lstm.weight_ih_l1 f4 [256, 64]
0	0x3f5fe14f	0.8745317
1	0xbf5e8e77	-0.86936134
2	0xbf6a84a4	-0.91608644
3	0x3c1d2b67	0.009592867
4	0xbed1274b	-0.4085029
5	0xbf51e8c3	-0.8199579
6	0xbf57dad7	-0.843183
7	0xbf338a42	-0.7013284
8	0xbe80b331	-0.25136712
9	0xbf0d264e	-0.55136573
10	0x3f4f1e9a	0.8090607
11	0xbf4010fc	-0.75025916
12	0xbdb441e1	-0.08801628
13	0xbf652a56	-0.89517725
14	0x3e9be224	0.3044597
15	0xbf6db362	-0.9285184
16	0x3e190e88	0.1494695
17	0xbf6d8ae9	-0.92790085
18	0x3f57c7fa	0.84289515
19	0x3e74c094	0.23901588
20	0xbf25a0d4	-0.6469853
21	0xbd9bd4f7	-0.07608979
22	0xbf523680	-0.8211441
23	0xbf569ba8	-0.8383126
24	0x3e6269fb	0.22110741
25	0x3f3507e5	0.7071517
26	0xbdac7206	-0.08420186
27	0xbf244d1c	-0.6418016
28	0x3f3541c1	0.7080346
29	0xbe864721	-0.26226142
30	0xbd692699	-0.056921575
31	0x3f437d62	0.76363194
32	0x3ec406fd	0.38286582
33	0x3f58e2d5	0.8472112
34	0xbc961277	-0.018319352
35	0xbf24dcbd	-0.6439932
36	0xbd182585	-0.037145156
37	0x3f39e135	0.72609264
38	0x3e9b7a3a	0.3036669
39	0xbe89df35	-0.26928106
40	0xbf0f4efb	-0.5597989
41	0x3f619610	0.881196
42	0x3f3c39bb	0.7352559
43	0xbf46cdad	-0.77657586
44	0x3f4fd0e0	0.8117809
45	0xbf3ebc3a	-0.7450596
46	0xbe336004	-0.17517096
47	0x3f4b117a	0.7932354
48	0x3d8cf503	0.0688267
49	0xbf45c309	-0.77250725
50	0x3f4ff889	0.8123861
51	0x3e413c19	0.18870582
52	0xbdd95099	-0.10611076
53	0xbe2350a3	-0.15948729
54	0x3f3983ab	0.72466534
55	0xbdeff07c	-0.11715791
56	0xbe85b40d	-0.2611393
57	0xbf68bf0e	-0.90916526
58	0xbd96912a	-0.073519066
59	0x3f3e5be4	0.74358964
60	0xbe0615da	-0.13094273
61	0xbd886173	-0.06659212
62	0x3e6b91de	0.23004863
63	0xbf52b8af	-0.82313055
64	0xbe87a54e	-0.26493305
65	0xbd1a9d16	-0.037747465
66	0xbe41f85e	-0.18942401
67	0x3f6830c3	0.90699404
68	0xbf3baf41	-0.7331429
69	0xba9d6bf5	-0.0012010323
70	0xbe754fd2	-0.2395623
71	0xbe65657a	-0.22401991
72	0x3f343b24	0.7040274
73	0xbf722253	-0.94583625
74	0x3de37fa1	0.11108328
75	0xbe1fb8f1	-0.15597893
76	0xbf375279	-0.7161022
77	0x3e7ac650	0.24489713
78	0xbf3f3949	-0.74696785
79	0xbd0111b2	-0.031511016
80	0xbf169f53	-0.5883686
81	0xbe5747d2	-0.21023491
82	0x3d30f838	0.04320547
83	0x3f49c8a8	0.788218
84	0xbed39b42	-0.4132939
85	0xbf3aa9d6	-0.729154
86	0x3e7aea71	0.24503495
87	0xbe4a6d50	-0.19768262
88	0x3f5f6bb7	0.87273735
89	0xbe52a84c	-0.20572013
90	0x3f1ee00a	0.62060606
91	0x3e92a292	0.28639656
92	0xbe5712bd	-0.21003242
93	0xbf6288b8	-0.88489866
94	0xbf3a5ae9	-0.7279497
95	0xbdcabb41	-0.09898997
96	0x3f6f4e09	0.9347845
97	0x3d3cece9	0.046124373
98	0x3f3471b4	0.70486
99	0x3ed42269	0.41432503
100	0x3f4862dc	0.7827585
101	0x3e4b30d9	0.19842853
102	0x3f3e6ab4	0.74381566
103	0xbf4179f2	-0.755767
104	0xbebdef5a	-0.37096673
105	0x3e0b9169	0.13629688
106	0xbe42b70d	-0.19015141
107	0x39aa236a	0.00032451312
108	0xbd326c66	-0.043560408
109	0x3d8375ab	0.06418928
110	0xbf3de75d	-0.7418116
111	0xbe4fce7a	-0.20293608
112	0x3f36c1af	0.7138929
113	0xbd3b5777	-0.04573771
114	0xbe63a22b	-0.22229831
115	0x3f32bf75	0.6982339
116	0xbf404558	-0.7510581
117	0xbf5bf0b7	-0.85914177
118	0xbe842560	-0.25809765
119	0xbf6884e9	-0.90827805
120	0xbf6742be	-0.90336215
121	0x3e307b17	0.17234455
122	0x3f558255	0.83401996
123	0x3df01926	0.11723547
124	0xbf437581	-0.7635117
125	0xbf76af8f	-0.9636163
126	0xbf2c1c63	-0.67230815
127	0xbe6a6e2b	-0.22893588
128	0x3f1ff438	0.62482023
129	0xbf3770fb	-0.7165677
130	0xbf2bb10a	-0.67067015
131	0xbf1a37d1	-0.6024142
132	0x3f2036c5	0.6258357
133	0xbf467566	-0.77522886
134	0xbf420c1d	-0.75799733
135	0xbf2071ed	-0.62673837
136	0xbf12798a	-0.57216704
137	0x3ee90df0	0.45518446
138	0x3f1db310	0.6160135
139	0xbf52784f	-0.82214826
140	0x3f30205f	0.68799394
141	0xbf23f283	-0.6404192
142	0x3f1a82d0	0.60355854
143	0xbf1b9786	-0.6077808
144	0x3f1691ca	0.58816206
145	0xbf210a99	-0.62906796
146	0x3f46df92	0.7768489
147	0xbee500a2	-0.44727045
148	0xbf3e655f	-0.7437343
149	0x3f2af61b	0.6678178
150	0xbf28952d	-0.65852624
151	0xbf233146	-0.6374706
152	0xbf0cf7b0	-0.5506544
153	0x3f290db4	0.66036534
154	0xbf37e706	-0.7183689
155	0xbf3e18d7	-0.7425665
156	0x3f18201d	0.59424
157	0x3f1dcf60	0.61644554
158	0x3f02800b	0.5097663
159	0x3f386b41	0.72038656
160	0xbee5fc21	-0.44918922
161	0x3f35cd6b	0.7101657
162	0xbf08ed0e	-0.53486717
163	0xbf40ea1d	-0.7535723
164	0xbf2a1985	-0.6644519
165	0x3f244ee5	0.64182884
166	0xbefb2649	-0.49052647
167	0x3ee33a7c	0.44380558
168	0xbf576a29	-0.8414636
169	0x3f37504d	0.71606904
170	0x3f2fa37d	0.6860884
171	0xbf345103	-0.70436114
172	0x3f2f131c	0.68388534
173	0xbf3a2783	-0.7271654
174	0x3f1327a0	0.5748234
175	0x3f3ce245	0.7378276
176	0xbeffbd79	-0.49949244
177	0xbf537a22	-0.82608235
178	0x3f2775b6	0.6541399
179	0xbf229039	-0.63501316
180	0x3f29611a	0.6616379
181	0x3f293893	0.6610195
182	0x3f29516b	0.6613986
183	0x3f2585c6	0.6465725
184	0x3f135be6	0.575621
185	0xbf194cc3	-0.59882754
186	0xbf094c73	-0.5363228
187	0x3f42f496	0.7615446
188	0x3f1809e3	0.59390086
189	0x3eeac8f5	0.45856443
190	0x3f0b21a1	0.5434819
191	0xbf2e0879	-0.6798168
192	0xbe175c4f	-0.14781307
193	0xbd8bd926	-0.06828527
194	0xbe2dc529	-0.16969742
195	0x3f4f1d07	0.8090367
196	0xbf31b81f	-0.6942157
197	0x3e35beff	0.1774864
198	0x3c84eee4	0.016227193
199	0xbe5091ae	-0.20368072
200	0x3f3b4d98	0.73165274
201	0xbf306335	-0.6890138
202	0xbdb8ff05	-0.09033016
203	0xbe8f34ce	-0.27969974
204	0xbf0f0409	-0.5586553
205	0x3e13e7a1	0.14443828
206	0xbf1b5f9d	-0.6069277
207	0xbe63abc4	-0.22233492
208	0xbeeda5f3	-0.46415672
209	0xbc7d504d	-0.01546104
210	0x3d82f916	0.063951656
211	0x3f40bade	0.75285137
212	0xbe8a0819	-0.26959303
213	0xbf5088ea	-0.81458914
214	0x3e6cec4a	0.23137012
215	0xbd4fef4a	-0.050765313
216	0x3f408a42	0.75210965
217	0xbe33c6ef	-0.17556356
218	0x3f379b4c	0.7172134
219	0x3ef05efe	0.46947473
220	0xbeabe551	-0.33573392
221	0xbf5f0153	-0.87111396
222	0xbf19f2df	-0.60136217
223	0xbe943614	-0.28947508
224	0x3f48937b	0.7835004
225	0x3d81fd74	0.063471705
226	0x3f47522f	0.7785978
227	0x3e946e68	0.28990483
228	0x3f533049	0.8249555
229	0x3e959f29	0.29222992
230	0x3f41c302	0.75688183
231	0xbf5146c5	-0.8174861
232	0xbeff0274	-0.4980656
233	0xbd0e3561	-0.034718875
234	0xbe054809	-0.1301576
235	0x3dd03202	0.10165788
236	0xbb784ecc	-0.0037888763
237	0x3ded1651	0.11576522
238	0xbf3855a7	-0.72005695
239	0xbea1a14d	-0.31568375
240	0x3f1bf41f	0.60919374
241	0x3d974406	0.07386021
242	0xbe89b1fd	-0.26893607
243	0x3f2802a4	0.6562903
244	0xbf3b3338	-0.7312503
245	0xbf4dd3cb	-0.80401295
246	0xbea373fc	-0.31924427
247	0xbf25692a	-0.6461359
248	0xbf52af82	-0.82299054
249	0x3e93362e	0.28752273
250	0x3f46358f	0.77425474
251	0x3e570262	0.20997003
252	0xbf43e434	-0.76520085
253	0xbf48ec6a	-0.7848574
254	0xbf226974	-0.6344216
255	0xbdafa6de	-0.08576749

lstm.weight_hh_l1 f4 [256, 64]
0	0xbf16947b	-0.58820313
1	0x3f5352f8	0.82548475
2	0x3f048ba1	0.51775557
3	0xbef187f8	-0.47174048
4	0xbf0aa2f3	-0.5415489
5	0xbef3e13e	-0.47632784
6	0xbec7a5b9	-0.38993624
7	0x3e2bee3a	0.16790095
8	0xbeb9d440	-0.36294746
9	0xbf39d4f2	-0.72590554
10	0xbd672c50	-0.056438744
11	0x3ed4c4bf	0.41556355
12	0xbe9b56dc	-0.30339706
13	0xbf4ee093	-0.80811423
14	0xbe7f83ae	-0.24952576
15	0x3e5b254e	0.2140095
16	0xbf5339f4	-0.82510304
17	0xbeac9303	-0.3370591
18	0xbf3c5205	-0.7356265
19	0x3f0d47c4	0.5518763
20	0x3f48960d	0.7835396
21	0xbf22a704	-0.63536096
22	0x3e0600d4	0.13086253
23	0xbecc3b28	-0.39888883
24	0x3e2e1ff3	0.17004375
25	0xbf3c0d99	-0.7345825
26	0x3f2e738b	0.68145055
27	0xbebe3574	-0.37150156
28	0x3f5bbece	0.8583802
29	0xbf1ecb9c	-0.62029433
30	0xbf2a08bc	-0.6641958
31	0xbf2e40ec	-0.6806781
32	0xbee19c0a	-0.4406436
33	0x3ee26b80	0.4422264
34	0x3e7f0e2d	0.24907751
35	0x3f156cdb	0.58369225
36	0x3ea72704	0.32646954
37	0xbf104574	-0.5635598
38	0x3f06c1c9	0.5263944
39	0xbe316643	-0.17324166
40	0xbf513b3e	-0.8173102
41	0xbde1eb2c	-0.110311836
42	0x3e9d4469	0.30716255
43	0x3f09ca4b	0.538243
44	0x3f2f1f18	0.6840682
45	0xbecbb67f	-0.3978767
46	0x3ece8f7e	0.4034385
47	0x3eef2f45	0.4671575
48	0x3e1f1f53	0.15539293
49	0x3f11bcf8	0.5692897
50	0xbf6229fa	-0.883453
51	0x3f1658a5	0.5872901
52	0x3f390370	0.7227087
53	0x3f6cf1c8	0.9255643
54	0x3dfdaa31	0.12385977
55	0x3f1499be	0.5804709
56	0xbf1cc0ec	-0.61231875
57	0xbf02fe18	-0.51168966
58	0xbf3fec63	-0.7497007
59	0x3f4d818e	0.8027581
60	0xbe5d626a	-0.21619573
61	0xbf376f92	-0.7165462
62	0xbf22a5f5	-0.6353448
63	0x3eb38ad7	0.35066864
64	0xbe8d7856	-0.27630872
65	0x3e576a5d	0.21036668
66	0xbea7dc72	-0.32785374
67	0xbe90bdad	-0.2826971
68	0xbf42cb27	-0.76091236
69	0xbf5ce2db	-0.86283654
70	0xbe8d31c7	-0.2757704
71	0xbd69fdf5	-0.057126958
72	0xbf72d2d9	-0.9485298
73	0x3e270747	0.1631137
74	0xbf4451cd	-0.7668732
75	0x3f40574f	0.7513322
76	0xbf4db7b4	-0.80358434
77	0xbeb9f6e0	-0.36321163
78	0xbf6e85de	-0.93173015
79	0x3f4f9aae	0.810954
80	0xbf4136c1	-0.7547417
81	0xbeeedf85	-0.46654907
82	0xbe8af2cc	-0.27138364
83	0x3f44f176	0.7693094
84	0xbe12883d	-0.14309783
85	0xbf14ca07	-0.5812077
86	0x3f40d418	0.7532363
87	0xbf4084b7	-0.75202507
88	0x3e530f52	0.20611313
89	0xbd8c6283	-0.06854727
90	0xbe0c7a6f	-0.1371858
91	0xbf5e3596	-0.86800516
92	0xbe0674bd	-0.1313047
93	0xbf5e8829	-0.86926514
94	0xbe1e3fe3	-0.15454058
95	0xbd96e0ea	-0.07367118
96	0xbf53be15	-0.8271192
97	0xbe5ec05b	-0.21753065
98	0x3f52ed7b	0.82393616
99	0x3e783cb1	0.24241902
100	0xbf395c14	-0.72406125
101	0xbe8a2289	-0.26979473
102	0x3f353cf8	0.70796156
103	0xbeb7ea7d	-0.35921088
104	0xbe82eb17	-0.25569984
105	0x3f01b281	0.50663
106	0x3f50dc60	0.81586266
107	0x3e8e79dc	0.27827346
108	0x3f64601a	0.8920914
109	0xbf5d424f	-0.86429304
110	0x3f4762f6	0.7788538
111	0x3f3de6a7	0.7418007
112	0x3f40eff5	0.75366145
113	0x3c8f7ead	0.017516458
114	0xbe559a88	-0.2085973
115	0xbec7c514	-0.39017546
116	0xbec2b36e	-0.3802752
117	0xbe895d5e	-0.26829046
118	0x3f27ffbc	0.65624595
119	0x3e4635fe	0.19356534
120	0xbe718c92	-0.2358878
121	0xbf528522	-0.82234395
122	0xbe586ee9	-0.21136059
123	0xbeaf29db	-0.3421162
124	0xbeb10572	-0.34574467
125	0xbe30e10c	-0.17273349
126	0xbed56089	-0.41675213
127	0x3f164584	0.5869982
128	0xbf62aec7	-0.8854794
129	0x3f520b69	0.8204866
130	0x3f49cf0f	0.7883157
131	0x3de15dd8	0.110042274
132	0x3ef19329	0.47182587
133	0x3e6815f3	0.22664623
134	0xbea80c85	-0.32822052
135	0x3f83306e	1.0249155
136	0x3f077776	0.5291666
137	0xbf4702c1	-0.7773858
138	0x3e8d98d1	0.27655652
139	0xbe435a10	-0.19077325
140	0x3f110d70	0.5666113
141	0xbf275503	-0.6536409
142	0x3f16d9ff	0.58926386
143	0xbee79d93	-0.45237407
144	0x3e7b794e	0.24557993
145	0xbee8eefc	-0.4549483
146	0xbf4a73f3	-0.79083174
147	0x3dd43e15	0.10363404
148	0x3f3a4eba	0.7277638
149	0xbefc6db6	-0.49302453
150	0xbeae44f2	-0.34036976
151	0x3e24e581	0.16103174
152	0x3f067586	0.52523077
153	0xbf3a4ff1	-0.7277823
154	0x3f4ecfc4	0.80785775
155	0x3f14eb43	0.5817148
156	0x3f2117d4	0.62926984
157	0x3e0cbfe3	0.13745074
158	0xbf5efb9d	-0.8710268
159	0xbf3a6c8c	-0.7282188
160	0x3ef9289e	0.486638
161	0x3f43551b	0.76301736
162	0xbe9afa3b	-0.30269036
163	0x3f5a3a2c	0.85245013
164	0x3ec05862	0.3756743
165	0xbf4fa0e5	-0.8110488
166	0xbed81dcf	-0.42210242
167	0xbedfb2b7	-0.43691036
168	0xbf5accfa	-0.8546902
169	0xbe9d84d0	-0.3076539
170	0xbf1bb20f	-0.6081857
171	0xbcc515d4	-0.02405826
172	0x3f64a38c	0.8931205
173	0x3eee6a9f	0.4656572
174	0xbe2e1e13	-0.1700366
175	0xbee06f04	-0.43834698
176	0xbf2a8617	-0.66610855
177	0x3f5b5966	0.85683286
178	0xbf3d40d1	-0.73927027
179	0x3f5faece	0.87376106
180	0x3f5368d0	0.82581806
181	0x3f16af41	0.58861166
182	0xbf2bead1	-0.67155176
183	0x3f788091	0.97071177
184	0xbf2f1f49	-0.6840711
185	0x3ede74f3	0.434486
186	0xbf25902d	-0.6467312
187	0x3f3d2ce2	0.7389661
188	0x3ecfef2d	0.40612164
189	0xbf6eb063	-0.93237895
190	0x3e55d8cd	0.20883484
191	0xbebba5a9	-0.36649826
192	0xbe56a548	-0.20961487
193	0x3c4bbcae	0.012435121
194	0xbe43b8f9	-0.1911353
195	0x3e25a587	0.16176425
196	0xbf48c50a	-0.7842566
197	0xbf6b0e23	-0.91818446
198	0xbe94d524	-0.29068863
199	0xbe1dabbb	-0.15397541
200	0xbf44be7a	-0.76853144
201	0x3e9943f8	0.2993467
202	0xbf47f991	-0.78115183
203	0x3f54695c	0.82973266
204	0xbf63c1e3	-0.8896772
205	0xbe8acb1c	-0.27108085
206	0xbf556eda	-0.8337227
207	0x3f3116d6	0.6917547
208	0xbf3c14b1	-0.7346907
209	0xbee5b341	-0.44863322
210	0xbddb5b70	-0.107108
211	0x3f339a91	0.70157725
212	0xbe8cb8ea	-0.27484828
213	0xbebef390	-0.37295198
214	0x3f1c1bd9	0.6097999
215	0xbf6a6b11	-0.9156962
216	0x3ea013c6	0.31265086
217	0x3e25431b	0.1613888
218	0xbe72eced	-0.23723193
219	0xbf60f842	-0.8787881
220	0xbe749520	-0.23885012
221	0xbf5cc624	-0.8623984
222	0x3d795b78	0.060878247
223	0xbd8f3b95	-0.06993786
224	0xbf67db1f	-0.9056873
225	0xbe5ec944	-0.21756464
226	0x3f4b5634	0.7942841
227	0xbc62b0f8	-0.013836138
228	0xbf2bced6	-0.6711248
229	0x3d108e37	0.035291877
230	0x3f4b2cd6	0.7936529
231	0xbecf2ee9	-0.40465477
232	0xbe816c83	-0.252781
233	0x3e04ec00	0.12980652
234	0x3f2846b0	0.6573286
235	0x3eabf77a	0.33587247
236	0x3f5f7637	0.87289757
237	0xbf3a3880	-0.7274246
238	0x3f4434ae	0.7664288
239	0x3f462995	0.774072
240	0x3f54cf5e	0.8312892
241	0xbe046f52	-0.1293309
242	0xbdd40ff4	-0.10354605
243	0xbe9d2596	-0.30692738
244	0xbe919e85	-0.28441253
245	0xbe523208	-0.20526898
246	0x3f1217eb	0.57067746
247	0x3e281b47	0.16416655
248	0xbdca15b3	-0.0986742
249	0xbf6f53e7	-0.934874
250	0xbddcaef5	-0.10775558
251	0xbebb8c65	-0.3663055
252	0xbdae00c3	-0.08496239
253	0x3da7883f	0.08180284
254	0xbeada6c0	-0.33916283
255	0x3ec3064e	0.38090748

lstm.bias_ih_l1 f4 [256]
0	0xbe86d4c0	-0.2633419
1	0xbf42dd47	-0.7611889
2	0x3f35ec86	0.7106403
3	0xbf5be0c1	-0.8588982
4	0x3f224532	0.63386834
5	0xbed73050	-0.42029047
6	0xbd9bb2d2	-0.07602467
7	0x3daa927b	0.0832872
8	0x3f5347f9	0.82531697
9	0xbe3e47b8	-0.18582046
10	0xbe39d032	-0.18145826
11	0xbda5f36f	-0.08103072
12	0x3f3ac56e	0.72957504
13	0xbf246956	-0.6422323
14	0x3f557029	0.8337427
15	0xbe9cf10f	-0.30652663
16	0x3f02bebe	0.510723
17	0xbf322c32	-0.69598687
18	0xbefc1133	-0.49231872
19	0x3edd2d2c	0.43198526
20	0xbf3ce478	-0.73786116
21	0xbedc7e74	-0.43065226
22	0xbe8e2fac	-0.27770746
23	0x3e938d25	0.28818622
24	0xbf1f1b0a	-0.62150633
25	0xbf6d3d43	-0.926716
26	0xbf198451	-0.59967524
27	0xbdb548aa	-0.0885175
28	0xbf2c0c12	-0.6720592
29	0xbdb0978a	-0.08622654
30	0xbed23fef	-0.41064402
31	0xbf3a2e4f	-0.7272691
32	0x3f35cf68	0.710196
33	0x3e705e9c	0.2347359
34	0xbeab4706	-0.33452624
35	0xbf2ff6fe	-0.68736255
36	0xbeeb2556	-0.45926923
37	0xbe7b8897	-0.24563824
38	0x3f1ba216	0.607942
39	0xbf4f3882	-0.809456
40	0xbf36c953	-0.71400946
41	0x3ecec065	0.4038116
42	0x3f5a4f4e	0.8527726
43	0xbf7123cc	-0.94195247
44	0xbe8ccc1f	-0.27499482
45	0x3f56ba14	0.8387768
46	0xbe289c61	-0.16465904
47	0x3d195d8e	0.037442736
48	0x3e4bf887	0.19919024
49	0x3e90580e	0.2819218
50	0xbecb0707	-0.396538
51	0x3f0d92a0	0.55301857
52	0xbf3c66ae	-0.73594177
53	0xbf51e19d	-0.81984884
54	0x3f61359a	0.87972414
55	0xbdcba087	-0.099427275
56	0xbf5f1294	-0.8713772
57	0x3f2870dc	0.6579721
58	0xbf3c0c73	-0.73456496
59	0xbf435682	-0.76303875
60	0xbf1f464d	-0.62216645
61	0xbedc6de1	-0.4305258
62	0xbf3f3689	-0.7469259
63	0xbef16867	-0.47149965
64	0xbecc83ea	-0.39944392
65	0xbf4cc799	-0.7999206
66	0x3edfa2ed	0.4367899
67	0xbf76cfa9	-0.96410614
68	0x3f2f0e2a	0.6838099
69	0xbec2c0c4	-0.38037694
70	0xbf5e7089	-0.86890465
71	0xba8fc2ca	-0.0010968086
72	0x3f5a2919	0.8521896
73	0xbd9c248c	-0.07624158
74	0xbeb0eeb8	-0.34557128
75	0xbd37eb99	-0.044902418
76	0x3f4b229a	0.7934967
77	0xbf14b79f	-0.58092684
78	0x3f3e3530	0.7429991
79	0xbee5ca7a	-0.4488104
80	0x3f219c5e	0.6312922
81	0xbf2ad472	-0.66730416
82	0xbf0894e5	-0.53352195
83	0x3ee78d4a	0.45224983
84	0xbf191d3c	-0.59810233
85	0xbef20e30	-0.4727645
86	0xbea45414	-0.32095397
87	0x3e02a077	0.12756525
88	0xbed2eaf4	-0.4119488
89	0xbf39efe1	-0.7263165
90	0xbf3c86aa	-0.7364298
91	0xbe1c2820	-0.15249681
92	0xbf5e98e7	-0.8695206
93	0x3d6576ad	0.05602138
94	0xbef3516f	-0.47523066
95	0xbf47f20f	-0.7810373
96	0x3f197a66	0.5995239
97	0x3dbaf5b3	0.09128895
98	0xbeb8668a	-0.3601573
99	0xbf61dff6	-0.8823236
100	0xbe739131	-0.23785855
101	0xbf09119b	-0.5354249
102	0x3f06e641	0.5269509
103	0xbf36f2bd	-0.7146414
104	0xbf4573cf	-0.77129835
105	0x3f20b64b	0.62778157
106	0x3f654e82	0.8957292
107	0xbf494d32	-0.78633416
108	0xbe00f2c2	-0.12592605
109	0x3f6356eb	0.888045
110	0xbc062ace	-0.008188916
111	0x3e6c0ec9	0.23052515
112	0x3ea5baa6	0.32368964
113	0x3e2bd682	0.16781047
114	0xbf045c44	-0.51703286
115	0x3f0a9e6b	0.54147977
116	0xbf3127a7	-0.6920113
117	0xbf29af90	-0.6628351
118	0x3f3eef78	0.7458415
119	0x3d0d2e07	0.034467723
120	0xbf509091	-0.8147059
121	0x3f53df11	0.8276225
122	0xbf053fb5	-0.52050334
123	0xbf1ca5ca	-0.61190474
124	0xbf4eed0e	-0.80830467
125	0xbf04b569	-0.5183931
126	0xbf133272	-0.5749885
127	0xbf219c2a	-0.6312891
128	0xbf33a9cc	-0.70180964
129	0x3f12949f	0.5725803
130	0x3f5e8b5c	0.86931396
131	0xbea92e4d	-0.33043137
132	0x3f16ceda	0.5890938
133	0xbe5df380	-0.21674919
134	0x3f2648ba	0.6495472
135	0x3f348ba0	0.7052555
136	0x3f33eb11	0.7028056
137	0xbf293143	-0.6609079
138	0x3edaede4	0.4275962
139	0xbdd1251b	-0.102121554
140	0x3f303ab1	0.68839556
141	0xbf005c3d	-0.50140744
142	0x3f0ded2d	0.55440027
143	0x3dbe2750	0.09284842
144	0x3f001cb0	0.50043774
145	0xbef790cc	-0.4835266
146	0xbf2080b9	-0.62696415
147	0xbf00c64e	-0.5030259
148	0xbe99c955	-0.30036417
149	0xbf23787d	-0.63855726
150	0xbe3a932c	-0.18220204
151	0x3ed200e5	0.41016307
152	0x3efdeb8e	0.49593776
153	0xbe9569fd	-0.29182425
154	0xbee54263	-0.44777212
155	0x3ebf45b5	0.3735787
156	0x3ee28058	0.44238544
157	0xbd1ae932	-0.03782005
158	0xbf375872	-0.7161933
159	0xbecd55d8	-0.40104556
160	0x3f35e086	0.7104572
161	0x3f4b81dd	0.7949503
162	0xbd852599	-0.06501312
163	0xbe9c9474	-0.3058201
164	0x3eab449c	0.33450782
165	0xbf2eb17e	-0.6823958
166	0xbefcf1fa	-0.49403363
167	0xbebd172b	-0.36931738
168	0xbeb2a60f	-0.34892318
169	0xbe8bfe20	-0.2734232
170	0xbf115c60	-0.5678158
171	0xbd9b645c	-0.075875014
172	0x3e973624	0.29533494
173	0x3f26e263	0.6518919
174	0xbe6b5b78	-0.22984111
175	0xbf069d6d	-0.5258396
176	0xbf0fa154	-0.5610554
177	0x3f3c3b34	0.73527837
178	0xbf2d1ec3	-0.67625064
179	0x3f3e41b9	0.74319035
180	0xbd7725c7	-0.06033876
181	0xbe141de6	-0.1446453
182	0xbf2173b6	-0.63067186
183	0x3f46ccd9	0.7765632
184	0xbf2da495	-0.6782926
185	0x3f372687	0.71543163
186	0xbf05c239	-0.52249485
187	0xbed94828	-0.42437863
188	0xbe0b9594	-0.13631278
189	0xbf21d93c	-0.632221
190	0xbef35b5b	-0.47530636
191	0x3cb2bf10	0.021819621
192	0xbeee40d0	-0.46533823
193	0xbf496482	-0.7866899
194	0x3f1c30b5	0.6101182
195	0xbf4b3468	-0.7937684
196	0x3ec684fb	0.3877333
197	0xbf204ac1	-0.62614065
198	0xbe13163f	-0.14363955
199	0x3ec39834	0.3820206
200	0x3f5970b0	0.8493757
201	0xbe1a2463	-0.15052943
202	0xbf6b4014	-0.9189465
203	0xbf18d978	-0.5970683
204	0x3f5b169a	0.8558136
205	0xbf2662fe	-0.649948
206	0x3f52f9be	0.82412326
207	0xbf4dfeda	-0.80467
208	0xbe9aec5e	-0.3025846
209	0xbf390074	-0.72266316
210	0xbeda63ee	-0.42654365
211	0xbeee7015	-0.46569887
212	0xbf504436	-0.8135408
213	0xbf08ae13	-0.53390616
214	0xbf433b79	-0.76262623
215	0xbf1c5bdf	-0.61077684
216	0xbf311c4d	-0.6918381
217	0xbf3934de	-0.72346294
218	0xbf27f7cd	-0.6561249
219	0xbedfdf4e	-0.43725055
220	0xbf430327	-0.76176685
221	0xbf1c2222	-0.6098958
222	0xbeea829e	-0.45802778
223	0xbf42a7a1	-0.7603703
224	0x3f2a85b8	0.6661029
225	0x3efeb2de	0.4974584
226	0xbf22018b	-0.63283604
227	0xbf48fe35	-0.7851289
228	0xbf3393ce	-0.7014741
229	0xbef8ed50	-0.48618555
230	0x3f514115	0.8173993
231	0xbf354e15	-0.7082227
232	0xbf3e1c16	-0.74261606
233	0xbf0989a3	-0.5372564
234	0x3f529caa	0.822703
235	0xbf540da8	-0.8283334
236	0xbf43314d	-0.762471
237	0x3f63900d	0.8889168
238	0xbf4d7c56	-0.80267847
239	0xbe841bf8	-0.25802588
240	0xbeacf894	-0.337834
241	0x3f0e96b9	0.55698735
242	0xbefe47f0	-0.4966426
243	0x3f203332	0.6257812
244	0xbf2ff82f	-0.68738073
245	0xbf279d1e	-0.65474117
246	0x3f4d37ef	0.8016347
247	0x3e575409	0.2102815
248	0xbf62692a	-0.8844172
249	0x3f4c408d	0.79785997
250	0xbf1c8b1c	-0.61149764
251	0xbf1a53e4	-0.60284257
252	0xbef43921	-0.47699836
253	0xbeb06991	-0.3445554
254	0xbf4df525	-0.80452186
255	0xbf16bee5	-0.5888503
