models/stock_lstm_model.pth (torch, 4086 bytes, 10 tensors)

lstm.weight_ih_l0 f4 [8, 4]
0	0x3e9e91e5	0.30970684
1	0x3ee36324	0.44411576
2	0x3ea3d65f	0.3199949
3	0x3f347c35	0.70502025
4	0xbee535e2	-0.44767672
5	0x3f2a65e2	0.6656171
6	0x3f289d39	0.658649
7	0xbdd72d5e	-0.105067
8	0xbf285f11	-0.6577006
9	0xbf21c2da	-0.63187945
10	0xbe34f2e4	-0.1767078
11	0xbf00866e	-0.50205123
12	0x3ec0d969	0.3766587
13	0x3ec01782	0.37517935
14	0xbdc19433	-0.09452095
15	0x3ebe46a1	0.3716326
16	0xbe7006a3	-0.23440032
17	0x3f16b49b	0.5886933
18	0xbe189f1a	-0.14904442
19	0x3f1c615d	0.61086065
20	0x3ea7923c	0.32728755
21	0xbe73d7e2	-0.23812822
22	0xbe68e07f	-0.22741888
23	0xbf2dabf9	-0.67840534
24	0x3f3069c3	0.6891138
25	0xbf2648c5	-0.6495479
26	0x3f11ed31	0.5700255
27	0xbed8ad8a	-0.423199
28	0xbeb7ac1a	-0.3587349
29	0xbf0eba6d	-0.55753213
30	0x3e11bb6d	0.14231654
31	0x3f027a0a	0.50967467

lstm.weight_hh_l0 f4 [8, 2]
0	0xbf0708e6	-0.5274795
1	0xbf27cb0e	-0.6554421
2	0xbd6d33c7	-0.057910707
3	0xbd8a58ef	-0.06755244
4	0xbedf544d	-0.43619004
5	0x3f0bcbf8	0.54608107
6	0x3eb669e7	0.35627672
7	0x3ec6a2e1	0.38796142
8	0xbe42b42c	-0.19014043
9	0x3edf5534	0.43619692
10	0xbf20103f	-0.6252479
11	0x3ed51f5b	0.41625485
12	0x3f1be0ec	0.6089008
13	0x3e03e510	0.12880349
14	0xbdfd2187	-0.123599105
15	0xbee60f76	-0.4493367

lstm.bias_ih_l0 f4 [8]
0	0xbe3d2f21	-0.1847501
1	0x3e8ea1a3	0.27857694
2	0x3f2dd10e	0.6789712
3	0xbf0c28d4	-0.547498
4	0xbf248cc5	-0.642773
5	0x3e51c300	0.20484543
6	0xbe3ef939	-0.18649758
7	0xbda9c204	-0.08288959

lstm.bias_hh_l0 f4 [8]
0	0xbecb064d	-0.39653245
1	0x3f112cd5	0.56709033
2	0x3f189ebd	0.59617215
3	0x3e43348c	0.19063014
4	0x3efa3686	0.48869723
5	0x3f03d139	0.51491123
6	0xbeeb8ba5	-0.46004978
7	0xbe21f12d	-0.15814658

lstm.weight_ih_l1 f4 [8, 2]
0	0x3f342b8e	0.7037896
1	0x3e8b8886	0.27252597
2	0x3e2347c0	0.15945339
3	0x3bc3314a	0.0059568034
4	0x3e369817	0.17831455
5	0x3e142396	0.144667
6	0xbef1ac3b	-0.47201714
7	0xbf292f9f	-0.6608829
8	0x3e67469c	0.22585529
9	0xbf1715aa	-0.5901743
10	0x3f0c927a	0.54911005
11	0xbd847442	-0.06467487
12	0xbe57d075	-0.21075614
13	0xbf0e32e0	-0.5554638
14	0x3e6c6bbd	0.23087974
15	0x3e8c2a20	0.2737589

lstm.weight_hh_l1 f4 [8, 2]
0	0x3de33531	0.1109413
1	0xbe84c483	-0.25931177
2	0xbd1853e1	-0.03718937
3	0x3e90114c	0.28138196
4	0x3c1c37e1	0.009534807
5	0x3e4e5f43	0.20153527
6	0x3ecfe12c	0.4060148
7	0x3e10248a	0.14076439
8	0x3f195626	0.5989708
9	0xbebb92f2	-0.36635548
10	0x3c15a25d	0.009132949
11	0xbd92d388	-0.07169253
12	0xbe478521	-0.19484378
13	0xbee744f4	-0.45169795
14	0x3eeaed9c	0.45884407
15	0x3db5a2c3	0.08868935

lstm.bias_ih_l1 f4 [8]
0	0xbef61a7c	-0.4806708
1	0xbf17fd2e	-0.59370697
2	0xbf0e6728	-0.55626154
3	0x3f1d73c8	0.61504793
4	0x3dbca57a	0.0921125
5	0x3e7d97b0	0.24764895
6	0xbb083c4d	-0.0020787895
7	0xbf2da536	-0.67830217

lstm.bias_hh_l1 f4 [8]
0	0x3f0a0154	0.53908277
1	0x3ddc5318	0.107580364
2	0x3e86e682	0.26347739
3	0xbf1dc467	-0.6162781
4	0x3e15835a	0.14600888
5	0xbecc1aba	-0.3986414
6	0x3eb631d8	0.35584903
7	0xbb416028	-0.0029506776

fc.weight f4 [4, 2]
0	0xbf06cb15	-0.5265363
1	0xbf0cc605	-0.54989654
2	0xbe876e66	-0.26451415
3	0xbe9d626c	-0.30739152
4	0x3de55b99	0.111991115
5	0xbe57f033	-0.21087722
6	0xbeca9393	-0.39565715
7	0xbd94f9bb	-0.07274195

fc.bias f4 [4]
0	0xbf04ff5d	-0.51952153
1	0x3e590b8a	0.21195808
2	0xbf0b4f78	-0.54418135
3	0xbf1cc208	-0.6123357
